data/processed/gat_model.pt (torch, 102999 bytes, 24 tensors)

convs.0.convs.<user___rates___item>.att_src f4 [1, 2, 32]
0	0x3f1b0064	0.6054747
1	0x3f22fbc6	0.63665426
2	0xbecb1937	-0.39667675
3	0xba491413	-0.0007670533
4	0x3e3e2a81	0.18570901
5	0xbeff13b0	-0.49819708
6	0xbf47e55b	-0.78084344
7	0xbeffdac5	-0.49971595
8	0xbf123c56	-0.57123315
9	0xbe15f5d5	-0.14644559
10	0xbee20de6	-0.4415123
11	0xbf2a89d3	-0.66616553
12	0xbe3ac7a2	-0.18240216
13	0x3e78cee0	0.24297667
14	0xbf55d881	-0.83533484
15	0x3f2c4150	0.6728716
16	0xbf2a35f6	-0.6648859
17	0x3ed67903	0.418892
18	0x3f58a672	0.84628975
19	0xbe9b5c01	-0.3034363
20	0xbef52c56	-0.47885388
21	0xbf1c8812	-0.61145127
22	0x3dace3d8	0.08441895
23	0x3ec77458	0.3895595
24	0xbf264ae7	-0.6495804
25	0x3f217444	0.6306803
26	0xbed5c813	-0.41754207
27	0xbf11c76a	-0.56944907
28	0x3f17e0dd	0.5932749
29	0xbe72f902	-0.23727801
30	0xbec3ae4a	-0.3821891
31	0xbf1c2e5b	-0.6100823
32	0xbe93098e	-0.28718227
33	0xbeacd5cd	-0.33756867
34	0xbf094e3b	-0.53634995
35	0x3ed7769a	0.42082673
36	0xbf5027a3	-0.8131048
37	0xbf0ff6d8	-0.5623603
38	0xbdcc8115	-0.09985558
39	0xbe48679a	-0.19570771
40	0xbd984e2a	-0.074367836
41	0x3e3fa73a	0.18716136
42	0x3e90c403	0.28274545
43	0xbe9ea929	-0.30988434
44	0x3dab79e4	0.08372858
45	0xbeac9efc	-0.33715045
46	0x3e9afd09	0.30271176
47	0xbb534b13	-0.0032240793
48	0x3e94b1dc	0.29041946
49	0x3f56a0b6	0.83838975
50	0x3ef2ac81	0.47397235
51	0x3f8537e7	1.0407685
52	0xbf5d1eac	-0.86374927
53	0x3e48341c	0.19551128
54	0x3e94c115	0.2905356
55	0x3ec4be8c	0.38426626
56	0x3fb910c2	1.4458239
57	0xbf560d52	-0.83614075
58	0x3ec4170f	0.38298842
59	0x3dac26b5	0.0840582
60	0xbf60891b	-0.87709206
61	0x3e80db60	0.2516737
62	0xbf871e0b	-1.0556043
63	0x3ebe0e47	0.37120268

convs.0.convs.<user___rates___item>.att_dst f4 [1, 2, 32]
0	0x3ecd1455	0.40054575
1	0x3eb4e970	0.3533435
2	0x3f04e1d8	0.5190711
3	0x3edef6c8	0.43547654
4	0x3ee1d629	0.44108704
5	0xbe3dec1b	-0.18547098
6	0x3e52a0bf	0.20569132
7	0x3e14cceb	0.14531295
8	0x3efe5f54	0.49682105
9	0xbe6be7b4	-0.23037606
10	0xbd626ecf	-0.055281457
11	0x3ec3e964	0.38264
12	0xbef28d34	-0.47373354
13	0x3f090f40	0.53538895
14	0xbe7b44cb	-0.24537961
15	0x3e31447b	0.1731128
16	0x3ecb7b9b	0.3974274
17	0xbeeae2ea	-0.45876247
18	0x3f030184	0.5117419
19	0xbe53ac60	-0.20671225
20	0xbefe0779	-0.49615076
21	0xbe94d1d5	-0.2906634
22	0xbdca49b8	-0.09877342
23	0x3e8d1d80	0.2756157
24	0xbecf068f	-0.4043469
25	0x3ee37766	0.4442703
26	0x3eab3d85	0.33445373
27	0x3e31e004	0.17370611
28	0xbeb5433d	-0.3540286
29	0xbea9c61f	-0.33158967
30	0xbcba7dd9	-0.022765087
31	0x3d38fcbb	0.045162898
32	0x3e5987c8	0.21243203
33	0x3e0704dd	0.13185449
34	0xbe5b4d10	-0.21416116
35	0x3ed5c138	0.41748977
36	0x3e432d54	0.1906026
37	0xbd9905d1	-0.074718125
38	0xbec72d2a	-0.38901645
39	0x3dfbc802	0.12294008
40	0xbe0c67ee	-0.13711521
41	0xbdb8cd87	-0.09023576
42	0xbe2f861f	-0.17141007
43	0x3d57da4e	0.052698426
44	0x3ee151f4	0.44007838
45	0x3e9970cd	0.29968873
46	0xbe333288	-0.17499745
47	0xbe53f102	-0.20697406
48	0xbe1c0c0e	-0.15238973
49	0x3e711d5f	0.2354636
50	0x3e55a876	0.20865044
51	0x3eab3947	0.33442137
52	0xbefe1f01	-0.4963303
53	0xbc387ef1	-0.011260734
54	0xbda57a89	-0.08080012
55	0xbe565f8f	-0.2093489
56	0x3e5cb37b	0.21552841
57	0x3e81339f	0.25234696
58	0xbdb7f13a	-0.08981557
59	0xbedc10b6	-0.429815
60	0x3ec2d58d	0.3805355
61	0xbe4403b6	-0.1914204
62	0x3ee9a566	0.45634001
63	0x3ec86a3d	0.39143553

convs.0.convs.<user___rates___item>.bias f4 [64]
0	0x3e99ca59	0.30037192
1	0xbd319a6b	-0.043360155
2	0xbe5be131	-0.21472622
3	0xbcc14755	-0.023593584
4	0x3e14a435	0.14515765
5	0xbe1c62a9	-0.15272011
6	0xbe814e1f	-0.25254914
7	0xbe28c175	-0.16480048
8	0xbe4cfda0	-0.20018625
9	0xbe89a495	-0.2688338
10	0xbe9d7f72	-0.30761296
11	0xbec0c3d1	-0.37649396
12	0xbe456a85	-0.19278915
13	0x3dc10257	0.094242744
14	0xbea85ecf	-0.32884833
15	0x3e466f03	0.19378285
16	0xbe36e4cd	-0.17860718
17	0x3c876d17	0.01653151
18	0x3e6a892e	0.22903892
19	0xbe91744f	-0.2840905
20	0xbe94a1dd	-0.29029742
21	0xbe9b16d0	-0.30290842
22	0xbe9c9510	-0.30582476
23	0x3e88f0d6	0.26746243
24	0xbe007dd5	-0.12548001
25	0x3d8189db	0.06325122
26	0xbdcba651	-0.09943832
27	0xbed66089	-0.41870525
28	0x3ea0da16	0.31416386
29	0xbdb49d3b	-0.08819052
30	0xbe2742ba	-0.16334048
31	0xbe9d60ec	-0.30738008
32	0xbe8a75de	-0.2704305
33	0xbea8cfbf	-0.32970998
34	0xbeb02eff	-0.34410855
35	0x3e70b9df	0.23508404
36	0xbee146fa	-0.43999463
37	0x3d6af666	0.05736389
38	0xbdda2faa	-0.106536224
39	0xbeb8d0bd	-0.36096755
40	0xbe2a94b5	-0.1665829
41	0x3e8fb908	0.28070855
42	0x3ebf3d2e	0.37351364
43	0xbe917552	-0.2840982
44	0x3e44efd9	0.1923212
45	0xbe8e2220	-0.2776041
46	0x3e444c72	0.19169787
47	0xbe76ba0e	-0.24094412
48	0xbdebe4e2	-0.11518265
49	0x3eac0a73	0.33601722
50	0x3decd45a	0.1156394
51	0x3ef29653	0.47380313
52	0xbee12861	-0.4397612
53	0xbe542dee	-0.20720646
54	0x3eaff60d	0.3436741
55	0x3e431b2c	0.19053334
56	0x3df228b3	0.11824169
57	0xbe64f119	-0.22357596
58	0xbde218f7	-0.11039918
59	0xbe38da02	-0.18051913
60	0xbead17e5	-0.33807293
61	0x3eb08a8e	0.3448071
62	0xbe7a45e5	-0.24440725
63	0x3e79d9d3	0.243995

convs.0.convs.<user___rates___item>.lin_src.weight f4 [64, 8]
0	0xbe4ffbe4	-0.20310932
1	0xbf0622fa	-0.5239712
2	0x3ccf46e2	0.025302354
3	0x3e8963a9	0.26833847
4	0xbe7e1d7a	-0.24815932
5	0x3f6beadd	0.9215525
6	0x3d8ab62b	0.06773027
7	0x3dcc63c0	0.09979963
8	0xbee13f64	-0.43993676
9	0xbe80b6a9	-0.2513936
10	0xbdd09ad0	-0.10185778
11	0x3e72baf3	0.23704128
12	0x3fd0f05f	1.6323355
13	0xbe046698	-0.12929761
14	0xbe47f30c	-0.19526309
15	0xbe5fcc10	-0.21855187
16	0x3e0234af	0.1271541
17	0xbceab41f	-0.028650342
18	0x3c8dfa19	0.01733117
19	0x3e24c64f	0.16091274
20	0xbf195b93	-0.59905356
21	0xbf809af3	-1.0047287
22	0x3e5b1e17	0.21398197
23	0xbeaabc4c	-0.33346784
24	0x3d696f35	0.05699082
25	0xbe6c403a	-0.23071375
26	0xbef22148	-0.47291017
27	0xbedba07b	-0.42895874
28	0x3fcaf17a	1.5854943
29	0x3f24c106	0.6435703
30	0x3e844a01	0.2583771
31	0x3e781522	0.24226812
32	0xbdf0946e	-0.11747061
33	0xbf86999b	-1.0515627
34	0x3e56505b	0.2092909
35	0x3dfc183f	0.12309312
36	0xbfc3e315	-1.5303675
37	0xbda22e97	-0.079190426
38	0xbd5b3479	-0.05351684
39	0x3c86d8a0	0.016460717
40	0x3e340d47	0.1758319
41	0x3e5b20f4	0.2139929
42	0xbea46f81	-0.3211632
43	0xbceb85dc	-0.028750353
44	0xbfca6636	-1.5812442
45	0xbe1f538d	-0.15559216
46	0xbde98b36	-0.114035055
47	0xbe17aae0	-0.14811277
48	0x3ea3f502	0.32022864
49	0xbf00a1ed	-0.5024708
50	0xbed5d682	-0.4176522
51	0xbf2947c1	-0.6612511
52	0x3d98500c	0.07437143
53	0xbf3a02db	-0.7266061
54	0xbd9209ce	-0.07130776
55	0x3e45f160	0.19330359
56	0x3e34d3ac	0.17658871
57	0xbd775ede	-0.060393207
58	0xbe9b1d7d	-0.30295935
59	0xbe33be78	-0.17553127
60	0xbfa7946a	-1.3092167
61	0xbd3c47f2	-0.04596705
62	0xbba063b7	-0.0048946994
63	0xbe9ba7c1	-0.30401424
64	0x3e458d04	0.19292074
65	0x3d5ec488	0.054386646
66	0x3d6a0726	0.057135724
67	0xbea28efe	-0.3174972
68	0xbfd4182e	-1.6569879
69	0xbe89676a	-0.2683671
70	0xbea86549	-0.32889774
71	0xbe1bc079	-0.15210141
72	0x3e3d3b3e	0.1847963
73	0xbeb8b262	-0.36073595
74	0xbe09d0da	-0.13458577
75	0x3e17a7d3	0.14810114
76	0xbf6d42d0	-0.9268007
77	0xbf8878c2	-1.0661852
78	0x3df8d5c0	0.121501446
79	0xbda5c2e2	-0.080938116
80	0x3e8122b6	0.25221795
81	0xbeaa917f	-0.3331413
82	0xbdb8ae47	-0.09017616
83	0xbe931680	-0.28728104
84	0xbf119245	-0.56863815
85	0xbf2a2aef	-0.6647176
86	0x3d4e063d	0.050298918
87	0xbe1859da	-0.14878026
88	0x3ecf310c	0.40467107
89	0xbec3f85e	-0.38275427
90	0xbe8ec60d	-0.27885476
91	0xbf0f30f4	-0.5593407
92	0xbf0c60f9	-0.5483547
93	0xbecd7e1e	-0.40135282
94	0x3c5a3d63	0.0133203
95	0xbdb2c7dd	-0.08729527
96	0x3e0a4739	0.13503732
97	0xbe1f6b46	-0.15568265
98	0x3e2a7456	0.16645941
99	0x3e3eeb3d	0.18644424
100	0xc001710e	-2.0225253
101	0xbf69a6b4	-0.91269994
102	0xbe3c0548	-0.1836139
103	0xbe28f302	-0.1649895
104	0xbeb3c692	-0.35112435
105	0x3d12554f	0.035725888
106	0x3e16bde8	0.14720881
107	0x3e836e0e	0.25669903
108	0x3f4f9433	0.8108551
109	0xbc9c357a	-0.019068468
110	0xbd546a9e	-0.05185949
111	0xbe223f4c	-0.15844458
112	0x3e28c6c9	0.1648208
113	0xbe401717	-0.18758808
114	0x3d4c1355	0.049823124
115	0xbddeb616	-0.10874574
116	0xbf756a28	-0.95865107
117	0xbf06f7e9	-0.5272203
118	0x3e5b5e36	0.21422657
119	0xbc9bb33f	-0.01900637
120	0xbe910826	-0.2832653
121	0x3e380b38	0.1797303
122	0x3d942a0d	0.07234583
123	0x3ea450d5	0.3209292
124	0x3f2baa18	0.6705642
125	0x3ea4827e	0.32130808
126	0x3ea16ffe	0.31530756
127	0x3e55c192	0.20874622
128	0x3e137142	0.14398673
129	0xbd991bab	-0.0747598
130	0x3dc82c92	0.09774126
131	0xbe07bafd	-0.13254924
132	0xbfac55a8	-1.346364
133	0xbee4a3c0	-0.4465618
134	0xbe0475c3	-0.12935548
135	0xbe806782	-0.2507897
136	0xbea7dd0d	-0.32785836
137	0xbe4640de	-0.19360682
138	0x3ec17687	0.37785742
139	0x3f0f44a5	0.5596412
140	0x3c2dbe1e	0.0106044095
141	0xbe9832e8	-0.29726338
142	0x3ea05278	0.3131292
143	0x3ac4e5f5	0.0015022146
144	0xbee2d4ae	-0.44302887
145	0xbeb4e568	-0.35331273
146	0xbe3bc266	-0.18335876
147	0x3e797795	0.24362023
148	0x3f8df7cf	1.109125
149	0x3e4d462b	0.20046298
150	0xbe0e1103	-0.13873677
151	0xbd4293c4	-0.0475042
152	0x3e16a2a4	0.1471048
153	0x3dd8b58a	0.10581501
154	0x3e5563b1	0.2083881
155	0x3d6b17c8	0.057395726
156	0xbcebb59d	-0.028773123
157	0xbf1908ed	-0.59779245
158	0xbd931cf6	-0.07183258
159	0xbe2fe85b	-0.1717848
160	0x3e85df60	0.26146984
161	0xbca7a2f4	-0.020463444
162	0xbe665476	-0.22493157
163	0x3d1e5538	0.03865549
164	0x3e948f04	0.29015362
165	0xbf7bcc38	-0.9835849
166	0x3e69c9a7	0.2283083
167	0xbe6343a3	-0.2219377
168	0x3ea0e179	0.31422022
169	0xbf013fbf	-0.50487894
170	0xbdc9da38	-0.09856075
171	0xbecbd28b	-0.3980907
172	0xbf34af50	-0.70580006
173	0xbf36dea0	-0.7143345
174	0x3dc4d84a	0.09611566
175	0xbe38d9b8	-0.18051803
176	0x3d005f27	0.031340744
177	0x3e4ee089	0.20202841
178	0x3db59f64	0.08868292
179	0x3d94250c	0.07233629
180	0x3ff988ef	1.9494914
181	0xbf8a2cb3	-1.0794891
182	0x3e28cdef	0.16484807
183	0x3daa978f	0.08329689
184	0xbeac9f48	-0.33715272
185	0xbebe16a8	-0.3712666
186	0x3d976990	0.07393181
187	0x3eb5e24f	0.35524222
188	0x3f88f426	1.0699508
189	0x3e7d8a6d	0.24759836
190	0xbc3d19c6	-0.011541789
191	0xbe33f4de	-0.17573878
192	0x3e23a4ef	0.15980886
193	0x3e25933a	0.16169444
194	0x3c6188f9	0.013765567
195	0xbe0d6e38	-0.13811576
196	0xbfcd1e7d	-1.6024929
197	0xbddf857a	-0.109141305
198	0xbe9445a8	-0.28959394
199	0xbe61bacc	-0.22043914
200	0xbe3b7118	-0.1830486
201	0x3de951c8	0.11392552
202	0xbe40bea4	-0.18822724
203	0x3da94687	0.08265405
204	0x40028762	2.039513
205	0xbe596a36	-0.21231923
206	0x3dd0b5f0	0.10190952
207	0x3ee61141	0.4493504
208	0x3dd2c8c4	0.10292199
209	0xbe3f8372	-0.18702486
210	0xbe7c2e13	-0.24626951
211	0x3ecb568d	0.3971447
212	0xc0087cb3	-2.132611
213	0x3d66a80a	0.0563126
214	0x3db681c7	0.08911472
215	0xbd1ebdd8	-0.038755268
216	0x3e5b9a56	0.21445593
217	0xbefb5de3	-0.49095067
218	0xbd16d70f	-0.03682619
219	0xbf102f12	-0.56321824
220	0xbf064d88	-0.52462053
221	0xbf36fecc	-0.7148254
222	0x3d8c34a3	0.06845977
223	0x3e1176dd	0.14205499
224	0xbe196725	-0.14980753
225	0x3d53c1f0	0.051698625
226	0xbd924633	-0.07142296
227	0x3d571ff0	0.052520692
228	0x3eb69b70	0.35665464
229	0x3f2cf285	0.67557555
230	0xbe4a41fc	-0.19751734
231	0x3e9f33c6	0.31094187
232	0x3e0185de	0.12648723
233	0x3dc84245	0.09778265
234	0xbe54cb0d	-0.20780583
235	0xbd49466d	-0.04913943
236	0x3eea1332	0.4571777
237	0xbe6ca5ea	-0.23110166
238	0x3d6ac0bb	0.05731271
239	0xbd953ef6	-0.072873995
240	0x3e2675ef	0.16255926
241	0xbc99c9e3	-0.018773025
242	0xbead7d72	-0.3388477
243	0x3c6c4654	0.014421064
244	0xbf9dd133	-1.2329468
245	0xbe5d7ba4	-0.21629196
246	0xbea22859	-0.31671408
247	0x3e4a453e	0.19752976
248	0x3e8ea091	0.27856877
249	0xbe324b92	-0.1741164
250	0xbe0ffff7	-0.14062487
251	0xbf2662ae	-0.64994323
252	0xbf035839	-0.5130649
253	0xbeb768a8	-0.35822034
254	0xbde17a61	-0.1100967
255	0x3db5adf4	0.088710696

convs.0.convs.<user___rates___item>.lin_dst.weight f4 [64, 8]
0	0xbd040bbc	-0.032237753
1	0x3b2e40a4	0.0026588822
2	0xbe1e349d	-0.15449758
3	0x3d522ee5	0.051314253
4	0x3e3a24c9	0.18178095
5	0x3cf9e070	0.030502528
6	0x3e237348	0.15961945
7	0xbe18f4e8	-0.14937174
8	0x3970bad5	0.00022957784
9	0xbdefef93	-0.11715617
10	0xbdbb7410	-0.091529965
11	0xbcd198a1	-0.025585474
12	0xbeba4484	-0.36380398
13	0x3b28aeb2	0.0025738892
14	0x3ce47bf6	0.02789114
15	0x3e17dedd	0.1483111
16	0xbe993f25	-0.29930988
17	0xbea34597	-0.3188903
18	0xbd87df02	-0.06634332
19	0xbe32ea19	-0.17472114
20	0xbdf274f0	-0.1183871
21	0x3de2fe62	0.11083676
22	0xbdd7a945	-0.105303325
23	0x3d6accc4	0.057324186
24	0xbe08698a	-0.1332151
25	0xbe06d720	-0.13168001
26	0x3df20cdd	0.1181886
27	0xbe6ff05c	-0.23431534
28	0x3e09e303	0.13465504
29	0xbe00f726	-0.1259428
30	0x3e458350	0.19288373
31	0xbc93359c	-0.017969899
32	0xbe4f13d3	-0.20222406
33	0xbe87d498	-0.26529384
34	0xbe84bc44	-0.25924885
35	0xbda71569	-0.081583805
36	0xbe407a04	-0.18796545
37	0xbd905f56	-0.07049434
38	0xbdd38660	-0.10328364
39	0xbe006c22	-0.1254125
40	0x3e6ea098	0.23303449
41	0x3eb661b2	0.3562141
42	0xbe104ab8	-0.14091003
43	0xbdc81d5c	-0.09771225
44	0x3e1b9ead	0.15197249
45	0x3e5bddf4	0.21471387
46	0xbd0f7517	-0.035023775
47	0x3eace9e3	0.3377219
48	0xbd17b6d7	-0.037039604
49	0xbe284980	-0.16434288
50	0xbb9eda8c	-0.00484783
51	0xbd28d3f1	-0.041217748
52	0xbde794fc	-0.113077134
53	0xbe5b6b13	-0.21427564
54	0x3e0815ec	0.13289613
55	0xbd244989	-0.04010919
56	0x3ddf2cbf	0.108972065
57	0xbe64855a	-0.22316495
58	0x3b10eebd	0.0022114955
59	0xbbc63556	-0.0060488386
60	0xbcf45f63	-0.02983064
61	0x3dd0d6d9	0.10197229
62	0xbe148bc4	-0.14506441
63	0xbeb36a79	-0.3504217
64	0xbe808e40	-0.25108528
65	0xbe3c7fee	-0.18408176
66	0x3d34c56e	0.044133596
67	0xbe298a04	-0.16556555
68	0x3d6ce6e3	0.05783738
69	0x3dfeff44	0.12451032
70	0xbe892337	-0.2678468
71	0xbe80d039	-0.2515886
72	0xbe420cd5	-0.18950208
73	0xbd628901	-0.05530644
74	0x3e0979ba	0.13425341
75	0x3da56c88	0.08077341
76	0xbd9fa4fb	-0.077951394
77	0x3e4f7ea8	0.2026316
78	0x3e57dc9a	0.21080247
79	0xbd86bdb4	-0.06579152
80	0x3dac9d45	0.08428434
81	0xbdd53fb5	-0.10412542
82	0x3e837035	0.25671545
83	0x3bef4693	0.0073021143
84	0xbdd5f9f8	-0.104480684
85	0xbdaa7777	-0.08323567
86	0x3cb5709d	0.022148425
87	0xbddc862e	-0.1076778
88	0xbd247ff3	-0.040161084
89	0xbe68a71e	-0.2272
90	0xbe88d5a2	-0.2672549
91	0x3dd6794e	0.10472356
92	0xbe975154	-0.29554236
93	0xbd7c87e8	-0.061653048
94	0x3de5c547	0.11219268
95	0x3d8b584c	0.06803951
96	0x3e3bac17	0.18327366
97	0xbe2d9b69	-0.16953816
98	0x3e272ed5	0.16326459
99	0x3e9e327e	0.30897897
100	0x3d99167a	0.0747499
101	0xbe3a9f37	-0.18224798
102	0x3e927985	0.28608337
103	0xbd8e151a	-0.069376186
104	0xbe6973e5	-0.22798117
105	0xbe18e469	-0.14930882
106	0x3dde7aa2	0.10863234
107	0xbe61d607	-0.22054301
108	0xbd04567f	-0.03230905
109	0xbe9b1d92	-0.30295998
110	0xbe982ffe	-0.29724115
111	0xbe969667	-0.29411623
112	0x3cd4db1a	0.025983382
113	0x3dcce94f	0.100054376
114	0xbe12dada	-0.14341298
115	0xbd5ba6b5	-0.05362578
116	0x3eaf8d37	0.34287426
117	0x3e81facd	0.25386658
118	0xbe1cd400	-0.15315247
119	0x3e566856	0.20938239
120	0xbeaf2640	-0.3420887
121	0x3d5e117c	0.054215893
122	0xbe0bf61d	-0.13668104
123	0xbeafccbb	-0.34335884
124	0xbeb018cd	-0.34393921
125	0xbe20e8a1	-0.15713741
126	0xbde0c302	-0.10974695
127	0x3e19bca5	0.15013368
128	0x3d8a3143	0.06747677
129	0xbe88551b	-0.2662743
130	0xbeaf72a8	-0.34267163
131	0xbe5f7ed2	-0.21825722
132	0xbdc22ee6	-0.094816014
133	0xbe34d950	-0.17661023
134	0x3dbc721a	0.09201451
135	0x3d4947f7	0.049140897
136	0x3e2f46f8	0.17116916
137	0x3e85af9d	0.26110545
138	0x3e10a581	0.14125635
139	0xbc8c1b4a	-0.017102856
140	0x3ead1a9b	0.3380936
141	0x3e9137cd	0.28362885
142	0x3c0c590a	0.00856615
143	0x3ea54859	0.3228176
144	0xbea1ee06	-0.3162691
145	0xbe699de8	-0.22814143
146	0xbeb10274	-0.34572184
147	0x3d639a73	0.055567216
148	0x3e42cdc9	0.19023813
149	0xbe5f7af6	-0.2182425
150	0xbd09a296	-0.03360232
151	0xbea2dfac	-0.31811273
152	0x3e894596	0.26810902
153	0x3e9dd29f	0.30824754
154	0xbde6a7a6	-0.11262445
155	0x3df8de23	0.12151744
156	0xbc842eb4	-0.016135551
157	0x3e503dd1	0.20336081
158	0x3e426f71	0.18987824
159	0xbe0ce43b	-0.13758938
160	0x3de7a028	0.11309844
161	0x3d3d9c94	0.046291903
162	0x3eb7856a	0.35843974
163	0xbde99a36	-0.114063665
164	0xbd4a8670	-0.049444616
165	0xbda0359d	-0.07822726
166	0x3dad5669	0.08463747
167	0x3d50f6c6	0.05101659
168	0xbb00efe1	-0.001967423
169	0x3e8829c9	0.2659438
170	0x3e4c5d87	0.19957553
171	0xbe2b2400	-0.16712952
172	0xbe3edd2b	-0.18639056
173	0xbd8fba83	-0.07017996
174	0x3e0eb1ee	0.13935062
175	0x3d94e74f	0.07270681
176	0x3de06714	0.109571606
177	0x3eb1bfbb	0.3471659
178	0x3e9ff50c	0.31241643
179	0xbda8f5b5	-0.0824999
180	0x3e9f39bb	0.31098732
181	0x3e04d7a1	0.12972881
182	0xbe5657e2	-0.20931962
183	0x3e832cae	0.25620025
184	0xbec89e93	-0.39183483
185	0xbe418d15	-0.18901475
186	0xbe659031	-0.22418286
187	0xbdfddf68	-0.12396127
188	0x3d7b0d38	0.061291903
189	0xbe2951f6	-0.16535172
190	0xbca0b3c3	-0.019616967
191	0xbe80f837	-0.25189373
192	0x3ec60216	0.38673466
193	0x3eb272ba	0.34853154
194	0x3ddda9fb	0.10823437
195	0x3e6020a9	0.21887459
196	0x3eb641d8	0.3559711
197	0x3e58108e	0.21100065
198	0x3d89f9b2	0.06737079
199	0xbdf2545b	-0.11832496
200	0xbe883561	-0.26603225
201	0xbdfb8965	-0.12282065
202	0xbe331224	-0.17487389
203	0xbe8c2d00	-0.27378082
204	0x3d867a92	0.06566347
205	0xbc76aaf5	-0.015055408
206	0xbdd50e9f	-0.104031794
207	0xbe9e9186	-0.309704
208	0xbeb62b12	-0.35579735
209	0x3e350f8a	0.17681709
210	0xbe9ca037	-0.30590984
211	0xbd5847d2	-0.05280287
212	0xbe26c612	-0.16286495
213	0x3e3192ca	0.17341152
214	0xbd15d794	-0.036582544
215	0x3dbbe9bd	0.091754414
216	0xbdf6c709	-0.12049682
217	0xbe3480f8	-0.17627323
218	0xbc9d7ba4	-0.019223996
219	0x3e1b6b5b	0.15177672
220	0x3de4db92	0.11174692
221	0xbe720414	-0.23634368
222	0xbe2ed55e	-0.1707358
223	0x3e39795b	0.181127
224	0x3e4a9bea	0.19786039
225	0x3cb785b2	0.022402618
226	0x3e78a397	0.24281155
227	0x3e8c0371	0.27346376
228	0x3e04ef14	0.12981826
229	0x3e757747	0.23971282
230	0xbdbd57ec	-0.092452854
231	0x3dee7571	0.11643494
232	0x3dfd86dd	0.12379239
233	0xbd6d934e	-0.05800181
234	0x3ec404d5	0.38284937
235	0xbb3261a9	-0.0027218855
236	0x3e9f2930	0.3108611
237	0xbd0d4c6e	-0.034496717
238	0x3e1e8c5f	0.15483235
239	0xbd9bc51b	-0.07605954
240	0xbe203263	-0.15644221
241	0x3da14832	0.07875098
242	0x3cf5fdad	0.030028189
243	0x3eaee191	0.3415647
244	0x3d27a5a7	0.040929463
245	0x3d4733a9	0.04863325
246	0xbe6040b1	-0.21899678
247	0x3e5b1350	0.21394086
248	0x3e44017f	0.19141196
249	0xbeabf342	-0.33584028
250	0xbe9e0b1a	-0.30867845
251	0xbe4e231e	-0.20130584
252	0x3d4456ea	0.04793445
253	0x3e403c2d	0.18772955
254	0x3e532b31	0.20621945
255	0xbd4613cb	-0.04835872

convs.0.convs.<item___rev_rates___user>.att_src f4 [1, 2, 32]
0	0xbeb35090	-0.35022402
1	0x3f3325ea	0.6997973
2	0xbcb4d626	-0.02207477
3	0xbccd36f0	-0.02505061
4	0xbeccac0e	-0.39975017
5	0xbf0357e7	-0.51306003
6	0xbee9909a	-0.45618135
7	0xbd4b3d7c	-0.049619183
8	0xbf89d110	-1.0766926
9	0x3e96ac47	0.29428312
10	0x3f65ce03	0.89767474
11	0xbf0c5bcd	-0.54827577
12	0x3f354589	0.7080923
13	0x3f69610e	0.9116372
14	0xbf306bb4	-0.6891434
15	0x3cb0ee46	0.021597993
16	0xbf4270f1	-0.75953585
17	0xbf23596a	-0.6380831
18	0xbf22d115	-0.63600284
19	0xbf6f118c	-0.9338615
20	0xbeb3c802	-0.3511353
21	0x3f431c6e	0.76215255
22	0x3e10a2b8	0.14124572
23	0xbec4bc4e	-0.38424915
24	0xbf86e7a9	-1.0539447
25	0xbf688356	-0.908254
26	0x3edbc8b0	0.4292655
27	0xbf0a3795	-0.5399106
28	0x3d9eda35	0.077564634
29	0x3ed2c33a	0.4116457
30	0xbf43ddb9	-0.76510197
31	0xbf60dc09	-0.87835747
32	0x3e989ad0	0.29805613
33	0x3f23e295	0.6401761
34	0x3f8a3475	1.0797259
35	0xbf115208	-0.56765795
36	0xbde6fb4e	-0.11278401
37	0xbee1ff3a	-0.44140035
38	0xbf2c8793	-0.6739437
39	0xbf1ddf29	-0.6166864
40	0x3f3d9063	0.7404844
41	0xbe93de28	-0.2888043
42	0xbd3f3593	-0.04668195
43	0x3f44dc76	0.76898897
44	0xbd499141	-0.04921079
45	0xbd996ede	-0.07491849
46	0x3f289e60	0.6586666
47	0xbcbdd5ef	-0.0231733
48	0x3e889239	0.2667406
49	0x3e2a5b94	0.16636497
50	0xbf9441e4	-1.1582608
51	0xbd2a6ca7	-0.041607525
52	0xbebdb935	-0.37055364
53	0xbef06649	-0.46953037
54	0x3ea9857f	0.33109662
55	0x3d83d044	0.06436208
56	0xbf362474	-0.71149373
57	0x3f27b86b	0.65515774
58	0x3f63bda9	0.88961273
59	0x3f082b51	0.53191096
60	0x3e58f40e	0.2118685
61	0x3f0b6b59	0.54460675
62	0x3f4dc97c	0.80385566
63	0x3f4e4470	0.8057318

convs.0.convs.<item___rev_rates___user>.att_dst f4 [1, 2, 32]
0	0xbe65c046	-0.22436628
1	0x3e866af6	0.2625348
2	0x3e2be1bd	0.16785331
3	0x3e0fdd95	0.1404937
4	0xbe83cad8	-0.25740695
5	0x3eb4ed06	0.35337085
6	0xbed3bd6a	-0.4135545
7	0xbb7887d9	-0.0037922768
8	0x3e974e33	0.2955185
9	0x3e9c3315	0.30507722
10	0xbe9004c5	-0.2812864
11	0x3d47bf36	0.048766337
12	0xbdfea612	-0.12434019
13	0xbe61e85f	-0.22061299
14	0x3e9f8d56	0.31162518
15	0x3e50d110	0.20392251
16	0xbec1d173	-0.3785511
17	0x3e52f1af	0.20600007
18	0xbe67b1a3	-0.22626357
19	0xbdf381f1	-0.11890019
20	0x3e3510cc	0.17682189
21	0xbe49e63e	-0.19716737
22	0x3d63033d	0.05542301
23	0x3decc4ec	0.11560997
24	0x3b39a6bb	0.002832814
25	0xbde85331	-0.113439925
26	0x3e8647fc	0.26226795
27	0xbe53d1f1	-0.20685555
28	0x3ce8feae	0.028441753
29	0x3eb480a9	0.3525441
30	0x3ebb2963	0.36555013
31	0xbe8fd31f	-0.2809076
32	0x3e484d22	0.19560674
33	0xbed0f0c0	-0.40808678
34	0xbec83450	-0.3910241
35	0x3e2f85db	0.17140906
36	0x3ed4e0e1	0.4157782
37	0xbebcad56	-0.36850995
38	0xbeb18771	-0.34673646
39	0x3eeae901	0.45880893
40	0xbf0222e8	-0.5083451
41	0x3e71a591	0.23598315
42	0x3e9fb554	0.3119303
43	0xbea648e0	-0.32477474
44	0x3e9a1b03	0.30098733
45	0x3e723763	0.23653941
46	0xbde0b80e	-0.10972606
47	0x3e66e62a	0.22548738
48	0x3ef5af12	0.4798513
49	0xbf005eb1	-0.5014449
50	0xbf007a7e	-0.5018691
51	0x3ef3e925	0.47638813
52	0x3e57e0b7	0.21081816
53	0xbf017011	-0.50561625
54	0x3ec85eaa	0.39134723
55	0xbee39503	-0.44449624
56	0x3ef07e44	0.46971333
57	0xbd897b43	-0.067129634
58	0xbe26b8eb	-0.16281478
59	0xbe7f03cb	-0.2490379
60	0x3e97352a	0.29532748
61	0x3f0bdb54	0.54631543
62	0x3e992ee2	0.2991858
63	0x3f0ef01e	0.5583514

convs.0.convs.<item___rev_rates___user>.bias f4 [64]
0	0xbe027aa9	-0.12742104
1	0xbc9d44ce	-0.019197848
2	0x3d6f58a3	0.05843414
3	0xbd9ab869	-0.07554705
4	0x3c1eec25	0.009699856
5	0xbe38040d	-0.17970295
6	0x3ce38b26	0.027776312
7	0xbdcd33fa	-0.10019679
8	0xbe3fe7f9	-0.18740834
9	0x3deb4dc4	0.11489442
10	0x3d8da47c	0.069161385
11	0xbd2e8ddc	-0.042615756
12	0xbda8ca80	-0.08241749
13	0x3df02c2f	0.11727177
14	0xbdf3e21b	-0.119083606
15	0xbd745f4f	-0.059661206
16	0xbda85f6d	-0.08221326
17	0xbd9549c1	-0.07289458
18	0xbdf8c4ad	-0.12146888
19	0xbe13883a	-0.14407435
20	0xbe16342b	-0.14668338
21	0x3dbc371e	0.091902
22	0x3de8ae62	0.11361386
23	0xbdc5281e	-0.09626792
24	0xbdb2b8bd	-0.08726642
25	0xbdfa5123	-0.12222507
26	0xbd3ec4de	-0.046574466
27	0xbd6900b0	-0.05688542
28	0xbd4ab7b5	-0.049491603
29	0xbd756ae0	-0.059916377
30	0xbd91bc73	-0.07116022
31	0xbe15d3a6	-0.14631519
32	0xbd159f47	-0.03652885
33	0x3e3b654d	0.18300362
34	0x3d56967e	0.052389614
35	0xbe8ef37e	-0.27920145
36	0xbd9df9a0	-0.07713628
37	0xbddcbe41	-0.107784756
38	0xbd2f8cfa	-0.042859055
39	0xbdc8fcba	-0.09813829
40	0x3dc60ddd	0.09670613
41	0x3d6b50fe	0.057450287
42	0x3e14d8ce	0.1453583
43	0x3daec5a9	0.085337944
44	0xbe32158c	-0.17391032
45	0xbe1f4af0	-0.1555593
46	0x3cc85ba6	0.024457764
47	0xbddefead	-0.10888419
48	0x3c1d5052	0.009601669
49	0xbd86c02a	-0.06579621
50	0xbde2787a	-0.11058135
51	0x3ccc0b44	0.024907716
52	0xbda4e66d	-0.08051763
53	0xbdc2049e	-0.09473537
54	0x3c885aa3	0.016644781
55	0xbdb65bef	-0.08904254
56	0xbd70fe72	-0.058836408
57	0x3e971274	0.29506266
58	0x3d912301	0.070867546
59	0x3cf0a654	0.029376186
60	0x3e20f795	0.15719445
61	0x3e9752c3	0.2955533
62	0x3d721841	0.05910516
63	0x3e1520ea	0.14563337

convs.0.convs.<item___rev_rates___user>.lin_src.weight f4 [64, 8]
0	0xbd81d02b	-0.06338533
1	0x3e35e482	0.1776295
2	0x3e3c97c8	0.18417275
3	0x3f3f28f4	0.74671865
4	0xbd6c96ea	-0.05776111
5	0xbf49aa38	-0.7877536
6	0x3e879ab0	0.26485205
7	0xbe1b5a21	-0.151711
8	0x3d9e99be	0.07744168
9	0xbca0e8bb	-0.019642225
10	0x3e0acacf	0.13553928
11	0xbec453fa	-0.3834532
12	0xbed46a35	-0.4148728
13	0xbd378299	-0.044802282
14	0x3db09821	0.08622766
15	0xbe432490	-0.19056916
16	0x3e214c31	0.15751721
17	0xbeb0eda5	-0.34556308
18	0x3e043423	0.12910514
19	0xbe8b747f	-0.27237317
20	0xbea20d9f	-0.31651017
21	0xbedebaa0	-0.4350176
22	0xbbb98f6c	-0.005662849
23	0xbeb02564	-0.34403527
24	0xbe2de337	-0.16981207
25	0x3e6a5906	0.22885522
26	0xbdf05cf6	-0.11736481
27	0x3f19d74b	0.60094136
28	0xbdadb973	-0.08482637
29	0xbf1ad6f7	-0.6048426
30	0xbde7a45b	-0.11310645
31	0xbd58c65e	-0.052923553
32	0xbdf79bda	-0.12090273
33	0x3eb74e96	0.35802144
34	0x3d8d7afd	0.06908224
35	0x3d3ff869	0.04686776
36	0xbda69dc5	-0.08135561
37	0x3dbe438f	0.092902295
38	0x3db9f24c	0.090794176
39	0xbddc4c0e	-0.10756694
40	0x3d5963bd	0.053073633
41	0x3c999b9f	0.018750964
42	0x3df6a470	0.12043083
43	0x3e0b0973	0.13577823
44	0xbda17d9a	-0.07885285
45	0xbf235474	-0.6380074
46	0x3e11f7d5	0.14254697
47	0xbe82abec	-0.2552179
48	0x3ba2fab9	0.004973736
49	0xbe718556	-0.2358602
50	0x3b908f1b	0.0044115908
51	0x3dec89fc	0.11549756
52	0x3e3a02ec	0.18165177
53	0xbe599b81	-0.21250726
54	0x3e633944	0.22189814
55	0x3e8672ee	0.2625956
56	0xbe593ba8	-0.21214163
57	0x3e29cc0a	0.16581741
58	0x3e2054c0	0.1565733
59	0x3e998e0b	0.29991183
60	0x3ea3a962	0.31965166
61	0xbd3f13a1	-0.04664958
62	0xbe7961d0	-0.24353719
63	0x3e06a983	0.13150601
64	0x3e2978ba	0.1654996
65	0xbe08cc43	-0.1335917
66	0x3bf63324	0.0075134207
67	0x3f37e6e1	0.7183667
68	0xbe599143	-0.21246819
69	0xbf5483b3	-0.8301346
70	0xbe98e5a0	-0.2986269
71	0x3e7bd284	0.24592024
72	0xbe1a7f29	-0.1508757
73	0x3e800f0b	0.25011477
74	0xbd851ec7	-0.06500011
75	0xbf0f015d	-0.55861455
76	0x3de7609c	0.11297724
77	0x3f4a0211	0.78909403
78	0x3e949f62	0.2902785
79	0x3e15713f	0.14593981
80	0xbdbdbf4f	-0.09265005
81	0xbe675ffd	-0.2259521
82	0x3de9be43	0.11413243
83	0xbea0836b	-0.31350264
84	0x3e423c16	0.18968233
85	0x3e5bbd31	0.2145889
86	0x3eddb766	0.43303984
87	0x3cac0084	0.02099634
88	0xbdbc1f1f	-0.091856234
89	0x3d3c0e7e	0.04591226
90	0xbdd41e59	-0.10357351
91	0x3f184dd2	0.59493744
92	0x3e943478	0.2894628
93	0x3e05d3b5	0.13069041
94	0x3e68d23e	0.22736451
95	0x3e99faea	0.30074245
96	0x3e839e7f	0.2570686
97	0x3ddce374	0.10785571
98	0x3e2724ed	0.1632268
99	0xbebfdb99	-0.37472227
100	0xbe84a6bc	-0.25908458
101	0xb937cda0	-0.00017528841
102	0xbdf0f3f0	-0.117652774
103	0xbb78bddb	-0.003795496
104	0x3d654270	0.055971563
105	0xbe22596d	-0.15854426
106	0xbe9302b0	-0.28712988
107	0xbf709930	-0.93983746
108	0x3e95b28b	0.2923778
109	0x3f657e3c	0.89645743
110	0x3df3b5e8	0.1189993
111	0x3db22675	0.08698741
112	0xbe4158eb	-0.18881576
113	0x3c0bfcc4	0.008544151
114	0xbd1bd9f0	-0.03804964
115	0x3f1a939f	0.603815
116	0x3e9f8a08	0.31159997
117	0xbdcd3593	-0.10019984
118	0x3df7723b	0.120823346
119	0x3e81022a	0.25196964
120	0xbd95b58c	-0.07310018
121	0xbe85392c	-0.2602018
122	0xbe2f4a2c	-0.17118138
123	0x3d171706	0.03688719
124	0x3df5b43c	0.119972676
125	0xbdc88c38	-0.097923696
126	0xbe30db4e	-0.17271158
127	0x3e7ac8a3	0.244906
128	0xbd4e3534	-0.050343707
129	0xbd8004b6	-0.062508985
130	0x3e0cabfb	0.1373748
131	0x3e9e0a42	0.308672
132	0x3e998ea4	0.2999164
133	0x3d783b91	0.060603682
134	0xbe1d71d1	-0.15375449
135	0x3dcd796d	0.10032926
136	0xbe4ef2a6	-0.2020975
137	0x3d0cc60d	0.034368563
138	0xbe968473	-0.29397926
139	0x3f10215b	0.56300896
140	0xbe463b7b	-0.19358627
141	0xbe8663ac	-0.2624792
142	0xbeadf338	-0.33974624
143	0xbc2d64a1	-0.010583074
144	0x3e3ddf11	0.18542124
145	0x3eb96da5	0.36216465
146	0xbebc6d8c	-0.36802328
147	0x3c3bb374	0.011456359
148	0xbe14683d	-0.14492889
149	0x3f00ab37	0.50261253
150	0xbecea8e3	-0.40363225
151	0xbe18122d	-0.14850684
152	0xbe15a675	-0.1461428
153	0x3e716c82	0.23576549
154	0x3e4a8e8c	0.1978094
155	0x3eff4533	0.49857482
156	0x3ec17757	0.37786362
157	0xbe12e2ee	-0.1434438
158	0x3df48c94	0.11940876
159	0x3e9c496a	0.3052476
160	0x3bc19b29	0.005908389
161	0x3e9bb8e3	0.30414495
162	0x3e34389d	0.17599721
163	0x3f0ff55c	0.56233764
164	0x3e1db0e2	0.15399507
165	0xbe1d5d05	-0.15367515
166	0xbe9ae86c	-0.3025545
167	0x3e9516e5	0.2911903
168	0xbe594fde	-0.21221873
169	0x3ea13604	0.31486523
170	0x3e719555	0.23592122
171	0xbf94390a	-1.1579907
172	0xbd21b0d7	-0.03947529
173	0x3e44fe84	0.19237715
174	0x3dd69663	0.10477903
175	0x3e73a88d	0.23794766
176	0xbe1cf4f2	-0.15327814
177	0x3df273d9	0.118385024
178	0x3d9a83c7	0.07544666
179	0xbd3faabf	-0.046793696
180	0xbd5e8360	-0.054324508
181	0x3ec4ea03	0.38459787
182	0xbd5ebca5	-0.054379124
183	0x3dda520f	0.10660183
184	0xbdc69749	-0.09696824
185	0x3ea33b82	0.31881338
186	0xbccc3d33	-0.024931526
187	0xbcd8648d	-0.026415134
188	0xbe02e6fa	-0.12783423
189	0xbdceb8fa	-0.10093875
190	0x3e225fca	0.15856853
191	0x3e107a0f	0.14109062
192	0xbdf3411b	-0.11877652
193	0xbc882e48	-0.016623631
194	0x3ebdd1bf	0.37074086
195	0x3e8124cd	0.2522339
196	0xbd92d9b2	-0.07170428
197	0xbf76d2c2	-0.9641534
198	0x3e577a1a	0.21042672
199	0x3e871b58	0.2638805
200	0x3e0420eb	0.12903182
201	0x3e7cc15d	0.24683137
202	0xbea627e8	-0.3245232
203	0x3ef759d2	0.48310715
204	0xbdcf1158	-0.1011073
205	0x3e94e271	0.2907901
206	0xbedaca6e	-0.42732567
207	0x3e2e92f9	0.17048253
208	0xbe139961	-0.14413978
209	0xbdc67e9b	-0.09692117
210	0x3df9fb65	0.12206153
211	0x3e2e6997	0.17032467
212	0xbe2c46f7	-0.16823946
213	0xbe996511	-0.2995992
214	0x3e4e87e7	0.2016903
215	0xbe24bfac	-0.16088742
216	0xbe832366	-0.25612944
217	0x3d97e006	0.07415776
218	0xbc5b38e2	-0.013380261
219	0x3f4479a0	0.76748085
220	0xbdbdea0b	-0.09273156
221	0xbec8c909	-0.39215878
222	0xbe85a132	-0.26099545
223	0xbe801566	-0.25016326
224	0xbdafbfba	-0.08581491
225	0xbcf970aa	-0.03044923
226	0xbe040975	-0.12894233
227	0x3f13c2ee	0.57719314
228	0xbe5327f9	-0.20620717
229	0xbed01d23	-0.4064723
230	0xbd8aa53b	-0.067697965
231	0x3da797df	0.08183264
232	0x3db987d5	0.09059111
233	0x3e43e2e3	0.19129519
234	0x3e120c1b	0.1426243
235	0xbea9639c	-0.33083808
236	0x3dfaa922	0.12239291
237	0x3da66785	0.081252135
238	0x3e0e0ec3	0.13872819
239	0xbb27d0d1	-0.0025606642
240	0xbdda2b05	-0.106527366
241	0x3e50f633	0.20406418
242	0x3c3a3974	0.011366237
243	0x3ea22e02	0.31675726
244	0x3dcbae7c	0.0994539
245	0x3f216df0	0.63058376
246	0x3dc063cf	0.09394037
247	0x3e49aa03	0.1969376
248	0x3d8e50f0	0.06949031
249	0x3df63596	0.120219395
250	0xbeef8100	-0.46778107
251	0x3f0d62c7	0.5522885
252	0xbdc1b19e	-0.09457706
253	0x3ec4c1ce	0.3842911
254	0xbd5022f5	-0.050814588
255	0x3de6aa86	0.112629935

convs.0.convs.<item___rev_rates___user>.lin_dst.weight f4 [64, 8]
0	0xbe73e58b	-0.23818032
1	0xbca93723	-0.020656174
2	0xbd4ad525	-0.049519677
3	0xbe0a59ed	-0.13510866
4	0xbda7ac65	-0.081871785
5	0xbe5d9154	-0.2163747
6	0x3e723631	0.23653485
7	0xbe0075b1	-0.12544896
8	0x3bbcd804	0.0057630558
9	0xbe852fb3	-0.26012954
10	0xbdc2fb21	-0.09520555
11	0x3de1a238	0.11017269
12	0xbec38cec	-0.38193452
13	0xbe6919e6	-0.22763786
14	0x3e8d3109	0.27576473
15	0x3c73ab75	0.0148724215
16	0x3e586ce2	0.21135285
17	0x3d14cd1d	0.036328424
18	0x3db6ddab	0.089289986
19	0xbe378caa	-0.17924753
20	0xbddaad96	-0.1067764
21	0xbca6f52f	-0.020380585
22	0xbe5bff77	-0.21484171
23	0xbdd592ad	-0.10428367
24	0x3e2ed956	0.17075095
25	0x3debab6b	0.11507305
26	0x3e193fd4	0.14965755
27	0xbeb06b88	-0.3445704
28	0xbe4f8a0b	-0.20267503
29	0xbe931834	-0.28729403
30	0xbe69a162	-0.22815469
31	0x3e379c1c	0.17930645
32	0x3e5cb0ec	0.21551865
33	0xbe6ddc24	-0.23228508
34	0xbce87798	-0.02837734
35	0x3d8e0c76	0.069359705
36	0x3cf0d7f9	0.029399859
37	0x3d30b8c8	0.04314497
38	0x3d89f9e0	0.06737113
39	0xbb52e348	-0.0032178927
40	0xbe8e07cc	-0.27740324
41	0xbe83d9c4	-0.2575208
42	0xbe0fadec	-0.1403119
43	0x3dba863c	0.091076344
44	0xbde8a38c	-0.11359319
45	0x3b86fa00	0.004119158
46	0xbe6ba2ce	-0.23011324
47	0x3e2eb529	0.17061295
48	0x3e00696e	0.12540218
49	0x3e71496a	0.23563161
50	0x3debcd6f	0.11513793
51	0x3eb54bc3	0.35409364
52	0xbdbb8cb5	-0.09157697
53	0x3e1b9393	0.15193014
54	0xbd28a56e	-0.04117339
55	0xbe7d60cc	-0.24743956
56	0xbe1f6af7	-0.15568148
57	0x3dbd12fb	0.09232136
58	0xbe07c813	-0.13259916
59	0x3d9fb0cd	0.07797394
60	0x3e87c70b	0.26519045
61	0x3e95273f	0.29131505
62	0x3e141272	0.14460161
63	0x3e9c402b	0.30517706
64	0x3e5126af	0.20424913
65	0x3e8b1cfb	0.27170548
66	0xbdadaa27	-0.084797196
67	0xbe9d4802	-0.30719
68	0x3d7eeed1	0.06223947
69	0x3c0b261e	0.008492975
70	0x3dd7c852	0.10536255
71	0x3e2fd7d1	0.17172171
72	0xbe9315d1	-0.28727582
73	0x3e72fb57	0.23728691
74	0x3d923bf8	0.071403444
75	0xbec7fd38	-0.39060378
76	0xbeced0de	-0.40393728
77	0xbdf1752f	-0.11789929
78	0xbb51301a	-0.003191954
79	0x3e1a7a67	0.15085755
80	0x3c4acb1c	0.012377527
81	0xbc2458ef	-0.010030969
82	0x3e817fe4	0.25292885
83	0x3ec86874	0.3914219
84	0xba5ab396	-0.00083428004
85	0x3e7cd597	0.24690853
86	0xbe974a69	-0.29548958
87	0x3e241b26	0.16025981
88	0x3d122419	0.035678957
89	0x3d8dfea2	0.06933333
90	0x3e3572dc	0.17719597
91	0xbe6b2c9f	-0.2296624
92	0x3da67c8f	0.081292264
93	0x3e0db77a	0.13839522
94	0xbe0241c9	-0.12720408
95	0xbde200b0	-0.110352874
96	0xbe61e97d	-0.22061725
97	0xbdd4ec9c	-0.10396692
98	0xbe4f1ca9	-0.20225777
99	0x3e8724c7	0.26395246
100	0x3d80d1d8	0.062900245
101	0xbdbbdcea	-0.091729954
102	0xbe56f1fa	-0.20990744
103	0xbe10452c	-0.14088887
104	0xbe3539b6	-0.17697796
105	0xbe4c9c04	-0.1998139
106	0xbb4f5bba	-0.0031640367
107	0xbde48116	-0.11157434
108	0xbba1cc08	-0.0049376525
109	0x3e863363	0.2621108
110	0xbe2dc93b	-0.16971295
111	0x3d1e4ccc	0.038647458
112	0x3e053c2e	0.13011238
113	0xbe1571d9	-0.1459421
114	0x3c438cbc	0.011935409
115	0xbd0cfd61	-0.03442133
116	0x3d3b90c8	0.04579237
117	0x3e24f738	0.16109931
118	0x3e6ef88c	0.23337
119	0x3da81060	0.08206248
120	0xbe74c26e	-0.23902294
121	0xbe6b7aa8	-0.22996008
122	0xbe21715e	-0.15765902
123	0xbea196aa	-0.3156026
124	0xbea91c09	-0.33029202
125	0xbbb512bc	-0.005525915
126	0xbbe15d20	-0.0068775564
127	0x3d6cd0f5	0.057816464
128	0x3d927534	0.07151261
129	0x3e518c56	0.2046369
130	0x3e2a247d	0.16615482
131	0x3eadce9c	0.33946693
132	0x3e3e508d	0.18585415
133	0xbe8843f2	-0.26614338
134	0x3e42dc2a	0.19029298
135	0xbdaec5e1	-0.08533836
136	0xbe28e636	-0.16494069
137	0x3e27b87f	0.16378973
138	0xbe657e98	-0.22411573
139	0xbd2bc91c	-0.04193984
140	0x3d162060	0.03665197
141	0xbe7da8f5	-0.24771483
142	0x3d681d23	0.056668412
143	0x3dc0ec2a	0.09420045
144	0x3e905e89	0.28197125
145	0x3e20bbca	0.15696636
146	0xbe35ffe2	-0.17773393
147	0x3e666a5e	0.22501513
148	0xbd8f3a28	-0.06993514
149	0x3e4637e0	0.19357252
150	0xbe7874f7	-0.24263369
151	0x3e465076	0.19366631
152	0x3e1fd08b	0.15606897
153	0x3c0ef4b8	0.008725338
154	0x3db7cb95	0.08974377
155	0x3ebd9311	0.37026265
156	0x3dd3c662	0.10340573
157	0x3de0ae6c	0.10970768
158	0xbe7757ca	-0.24154583
159	0xbdd85733	-0.10563507
160	0x3cccd093	0.0250018
161	0x3e151911	0.14560343
162	0x3d22391e	0.039605252
163	0xbba77743	-0.0051106527
164	0xbe4c4838	-0.19949424
165	0xbd9d0791	-0.07667459
166	0x3df8e0f7	0.12152284
167	0xbd7dd621	-0.061971787
168	0x3e50b525	0.20381601
169	0xbe3338d4	-0.17502147
170	0x3dc8acb7	0.09798568
171	0x3e946b10	0.28987932
172	0x3eb4494b	0.35212168
173	0x3e758640	0.23976994
174	0xbe468296	-0.19385752
175	0x3e5dbc5b	0.21653883
176	0xbc09df3c	-0.00841504
177	0x3e214c7d	0.15751834
178	0x3d5e87f4	0.054328874
179	0xbe066fb0	-0.13128543
180	0xbdb81eee	-0.08990274
181	0x3e46df9d	0.19421239
182	0x3d9f71bc	0.07785365
183	0xbdc3dd0a	-0.09563644
184	0xbe2501f2	-0.16114023
185	0x3e0377ea	0.12838712
186	0xbe8290cc	-0.25501096
187	0xbb583629	-0.0032991266
188	0x3dbea028	0.09307891
189	0x3e80522a	0.25062686
190	0xbd9effed	-0.07763658
191	0xbddaecc9	-0.106896944
192	0x3dccb541	0.09995509
193	0x3cb61743	0.022227889
194	0x3df6d7e6	0.12052898
195	0xbe8b71fb	-0.27235398
196	0x3e632031	0.22180249
197	0xbe090f47	-0.13384734
198	0x3d020f3a	0.031752802
199	0xbe541317	-0.20710407
200	0x3e32bf73	0.17455845
201	0xbe85b277	-0.2611272
202	0xbe18401f	-0.1486821
203	0x3d6d5dd4	0.05795081
204	0x3e965baf	0.29366824
205	0xbe63e04c	-0.22253531
206	0xbca1b4d2	-0.019739542
207	0xbdcc9e3b	-0.099911176
208	0xbe7a8756	-0.24465689
209	0x3e0e5e2d	0.13903113
210	0xbe026ba2	-0.12736371
211	0x3d6ae55a	0.057347633
212	0xbe5780ac	-0.21045178
213	0xbe687f28	-0.22704756
214	0x3e8759ad	0.26435605
215	0x3c9c46ac	0.019076668
216	0xbe29eb93	-0.1659377
217	0xbdf677ff	-0.12034606
218	0x3e3ff6ec	0.18746537
219	0x3dfaa5b0	0.12238634
220	0xbcfcf42d	-0.03087815
221	0xbe603cd2	-0.21898201
222	0xbe979103	-0.29602823
223	0xbd4d55a2	-0.050130494
224	0x3ae49128	0.001743828
225	0x3dd55b8c	0.10417852
226	0x3e8223c3	0.2541791
227	0xbcf58afc	-0.0299735
228	0xbe37b762	-0.17941049
229	0x3e6c43a1	0.23072673
230	0xbe3c31b5	-0.18378337
231	0x3db09605	0.08622364
232	0x3d5e8aed	0.05433171
233	0x3e3543ac	0.17701596
234	0xbe0b7f5c	-0.13622802
235	0xbe0ee19c	-0.1395325
236	0x3cc42205	0.023942003
237	0xbe58dc72	-0.21177843
238	0x3de348f5	0.110979
239	0x3cace8f4	0.021107174
240	0xbd0df687	-0.034658935
241	0xbe8ec9e5	-0.27888408
242	0xbd8814c5	-0.066445865
243	0xbe37298b	-0.17886941
244	0x3defe49d	0.117135264
245	0xbe65cae6	-0.22440681
246	0x3d375233	0.044756126
247	0x3e855775	0.26043287
248	0x3e6c81a7	0.23096333
249	0x3e749796	0.2388595
250	0xbdea23e1	-0.114326246
251	0xbe11aaa4	-0.1422525
252	0x3e522304	0.2052117
253	0xbd75974d	-0.059958745
254	0x3cfb6130	0.030685991
255	0xbe8af0bb	-0.27136788

convs.1.convs.<user___rates___item>.att_src f4 [1, 2, 32]
0	0x3ea6dd41	0.32590678
1	0xbeb2e4a8	-0.34940076
2	0x3e5bba08	0.21457684
3	0xbf247a69	-0.64249283
4	0x3dc7f44b	0.09763392
5	0xbf04c1f6	-0.5185846
6	0xbe562571	-0.2091272
7	0xbe97a3e2	-0.2961722
8	0xbe4a55e4	-0.19759327
9	0x3eac414c	0.33643568
10	0x3eb14e07	0.34629843
11	0x3e889365	0.26674953
12	0xbed0829b	-0.40724644
13	0xbeee4164	-0.46534264
14	0x3e02589d	0.12729116
15	0xbeff9993	-0.49921855
16	0xbd828eb9	-0.063748784
17	0x3f290643	0.6602518
18	0x3f06b59a	0.5262085
19	0xbed92ed9	-0.42418554
20	0xbf06a52f	-0.525958
21	0xbe361e9d	-0.17785116
22	0x3f1ab82a	0.6043726
23	0xbf0317fc	-0.5120847
24	0xbd9d89d3	-0.076923035
25	0x3e309f28	0.17248213
26	0xbec78b70	-0.3897357
27	0xbf27a4c0	-0.65485764
28	0xbdc63e1c	-0.09679815
29	0xbf1c9da1	-0.6117802
30	0x3ea88e11	0.32920888
31	0x3f371709	0.71519524
32	0xbea10f94	-0.31457198
33	0xbe0b8e23	-0.1362844
34	0x3e9eafb6	0.30993432
35	0xbec03dc3	-0.3754712
36	0xbe431ddf	-0.19054364
37	0x3daf1ebf	0.08550786
38	0xbe000aed	-0.12504168
39	0x3d7aec95	0.06126078
40	0xbeed2adb	-0.4632176
41	0x3db2c3fd	0.08728788
42	0xbcc18152	-0.023621235
43	0xbe833018	-0.2562263
44	0x3e8de05f	0.27710244
45	0x3d0cfed5	0.034422714
46	0x3d23992f	0.03994101
47	0x3e8a0763	0.2695876
48	0xbe5cfb18	-0.2158016
49	0xbd41d6d7	-0.047324028
50	0x3ee2d400	0.44302368
51	0x3cad24f6	0.021135788
52	0xbe887149	-0.2664893
53	0xbe9a0682	-0.3008309
54	0xbea27687	-0.31731054
55	0x3e4ce689	0.20009817
56	0xbdaf9ecb	-0.08575209
57	0x3e656579	0.2240199
58	0x3e8519f0	0.2599635
59	0x39d284f8	0.0004015339
60	0xbe209bdc	-0.15684456
61	0xbe877a46	-0.26460475
62	0x3f06e9bb	0.52700394
63	0xbef2542d	-0.47329846

convs.1.convs.<user___rates___item>.att_dst f4 [1, 2, 32]
0	0x3ee37246	0.4442312
1	0x3ee433d2	0.44570786
2	0xbe945b0b	-0.2897571
3	0x3e8964f0	0.26834822
4	0x3e9ba2bc	0.30397594
5	0x3ef31a24	0.4748088
6	0xbed3d3fd	-0.41372672
7	0x3f1b98b4	0.6077988
8	0xbe97cc9b	-0.2964829
9	0x3ed84ced	0.4224619
10	0x3eb903f8	0.3613584
11	0x3f1456a9	0.5794473
12	0xbf02d017	-0.5109877
13	0xbea7eeed	-0.32799473
14	0xbf05ab63	-0.5221464
15	0x3f1c8df2	0.6115409
16	0x3ea3f4d8	0.32022738
17	0xbe7f52f1	-0.24933983
18	0xbeafb6df	-0.34319207
19	0xbe9599f0	-0.29219007
20	0xbef37219	-0.47547987
21	0x3f203220	0.62576485
22	0x3ef1bf98	0.47216487
23	0x3eb56d56	0.3543498
24	0x3e889187	0.2667353
25	0x3f1c57a2	0.6107122
26	0xbe921a90	-0.2853589
27	0xbe9ce3c1	-0.30642512
28	0x3e7000df	0.23437832
29	0x3f1830e4	0.594496
30	0xbec40c80	-0.38290787
31	0xbf044389	-0.5166555
32	0xbcb7ce38	-0.0224372
33	0x3ecd1894	0.40057814
34	0x3f00170e	0.5003518
35	0x3e456fe5	0.19280966
36	0xbe08aad2	-0.13346413
37	0xbe89dc17	-0.26925728
38	0x3e2ffd01	0.17186357
39	0xbed13d43	-0.4086705
40	0x3ee44ee0	0.44591427
41	0xbe474ccb	-0.19462888
42	0xbda747d5	-0.08167998
43	0xbe156580	-0.145895
44	0x3e16087f	0.14651679
45	0xbdc490f1	-0.09597958
46	0x3e4d4e97	0.20049511
47	0x3cd6f320	0.026238978
48	0xbf0f9406	-0.5608524
49	0x3e388f92	0.18023518
50	0xbe062c83	-0.13102917
51	0xbeb6fe92	-0.35741097
52	0x3eeb8c6a	0.46005565
53	0x3eb1636c	0.34646165
54	0x3e746822	0.23867849
55	0x3ebd2e83	0.36949548
56	0xbeb9b1df	-0.36268517
57	0x3c4bd5c5	0.012441103
58	0x3e08722d	0.13324805
59	0x3ebc6b0d	0.36800423
60	0x3ec0ca51	0.37654355
61	0xbe6fd276	-0.23420128
62	0x3ef54416	0.47903508
63	0x3d1d90e3	0.038468253

convs.1.convs.<user___rates___item>.bias f4 [64]
0	0xbdb13408	-0.08652502
1	0x3d5566d5	0.05210002
2	0x3d12860a	0.03577236
3	0x3cd4c441	0.025972487
4	0x3d957abd	0.07298801
5	0xbd1c4cea	-0.03815929
6	0xbe269d26	-0.16270885
7	0x3d0bf329	0.034167442
8	0xbd0f3ad8	-0.034968227
9	0xbce66ea1	-0.028128924
10	0x3d263602	0.04057885
11	0xbe066914	-0.13126022
12	0x3d45674e	0.048194222
13	0x3c3a2da3	0.01136342
14	0xb7c8e910	-2.3950386e-05
15	0x3c8309a8	0.015995815
16	0xbda09616	-0.078411266
17	0x3cba6a31	0.022755714
18	0xbd948897	-0.07252615
19	0x3c711468	0.014714338
20	0x3e0a019e	0.1347718
21	0x3cf3bebd	0.029754037
22	0xbdee1de8	-0.11626798
23	0xbc2aaf62	-0.010417791
24	0x3d35da18	0.044397444
25	0x3dac077b	0.08399864
26	0x3d5235e6	0.051320933
27	0xbc529387	-0.012852556
28	0xbd748dd6	-0.059705578
29	0xb9fd0ef2	-0.00048267056
30	0x3d3ce040	0.0461123
31	0xbd616242	-0.055025347
32	0x3d02b287	0.03190854
33	0x3d2d0952	0.042245217
34	0xbd2796f6	-0.040915452
35	0x3cb5fd6f	0.022215573
36	0xbdb2db57	-0.08733242
37	0xbd369fa2	-0.04458583
38	0xbda29fe5	-0.07940654
39	0xbd51574f	-0.051108655
40	0xbda48baa	-0.08034451
41	0x3d2294f6	0.03969284
42	0x3daa5bdc	0.08318302
43	0xbd6f1c67	-0.058376696
44	0xbd67b041	-0.056564573
45	0xbda3d7d4	-0.0800015
46	0xbd0e9fbd	-0.034820307
47	0x3d56a7d2	0.05240614
48	0xbd266a43	-0.040628683
49	0xbd875195	-0.066073574
50	0xbd3574c1	-0.0443008
51	0xbd8b478b	-0.06800755
52	0x3d89f5e3	0.06736352
53	0x3cbea604	0.023272522
54	0x3b525160	0.003209196
55	0xbb69883a	-0.0035634176
56	0x3d645130	0.05574149
57	0x3d3f0a48	0.046640664
58	0xbbff2582	-0.0077864537
59	0x3d376683	0.044775497
60	0xbcf602a9	-0.030030565
61	0x3bf3b29b	0.007437063
62	0xbd7cbd84	-0.061704174
63	0x3c3e8cca	0.011630246

convs.1.convs.<user___rates___item>.lin_src.weight f4 [64, 64]
0	0x3e428f39	0.18999948
1	0x3d643ba9	0.05572096
2	0x3de9da07	0.114185385
3	0xbd05d9f8	-0.032678574
4	0x3e4df154	0.2011159
5	0x3e365d8f	0.17809127
6	0x3aaf1212	0.0013356826
7	0x3d4b244b	0.04959516
8	0xbd9066e2	-0.07050873
9	0xbe0ffc6a	-0.14061132
10	0xbd1c5002	-0.03816224
11	0x3c2fd67e	0.010732291
12	0x3d3ad4fd	0.045613278
13	0xbe17bb2e	-0.14817497
14	0x3b70a73c	0.0036720773
15	0xbd090b3d	-0.033457983
16	0x3e33c533	0.17555694
17	0xbddd660e	-0.10810481
18	0xbe3db6b6	-0.1852673
19	0x3de0096c	0.10939297
20	0x3de0008b	0.109376036
21	0x3dc9400f	0.09826671
22	0x3e0c46f1	0.13698937
23	0x3d0c9417	0.034320917
24	0x3e156a30	0.14591289
25	0x3e597999	0.21237792
26	0x3e4a5e65	0.19762571
27	0xbd87e82f	-0.066360824
28	0xbe0ac7b6	-0.13552746
29	0xbd6c94d8	-0.057759136
30	0x3d72c62c	0.059271023
31	0xbdd4cb6f	-0.103903644
32	0xbe6b3a9a	-0.22971573
33	0x3e5e7cd6	0.21727309
34	0xbe1447c1	-0.14480497
35	0x3d047326	0.032336377
36	0xbcec7839	-0.02886592
37	0x3d83f528	0.06443244
38	0xbec1e1e8	-0.37867665
39	0x3e50950b	0.20369355
40	0x3c277e2f	0.010222956
41	0xbd833f6e	-0.06408583
42	0x3e70cc96	0.23515543
43	0xbe1e3e6a	-0.15453497
44	0x3e03514a	0.12823978
45	0xbe5001b3	-0.20313148
46	0xbe4b074b	-0.19827001
47	0xbad9a702	-0.0016605558
48	0x3e0e3a71	0.13889481
49	0x3e33a4bb	0.17543308
50	0x3e591e10	0.21202874
51	0x3ddc201a	0.107483104
52	0xbdb9427e	-0.090458855
53	0xbcc276f1	-0.023738356
54	0x3e414829	0.18875183
55	0xbe46a8c4	-0.19400316
56	0xbe1a8ea0	-0.1509347
57	0xbdcd8bda	-0.1003644
58	0xbe2d7c3b	-0.16941921
59	0xbe506597	-0.20351253
60	0xbe36f156	-0.178655
61	0xbdd8167b	-0.10551163
62	0x3e3a5aac	0.18198651
63	0xbe214e84	-0.15752608
64	0x3e18352d	0.14864035
65	0x3dceb0b4	0.10092297
66	0x3cffd09c	0.031227402
67	0x3e022e11	0.12712885
68	0x3d8e5808	0.069503844
69	0x3da8ac67	0.08236008
70	0x3e34edc6	0.17668828
71	0xbe546d69	-0.20744862
72	0x3e2adaf8	0.16685092
73	0x3dd4ecca	0.103967264
74	0xbe874c93	-0.2642561
75	0xbe2cd5ac	-0.16878384
76	0x3e3be49d	0.18348928
77	0xbe1fb2da	-0.1559557
78	0xbe3e1040	-0.18560886
79	0x3d2b0d95	0.041761
80	0xbd9f3d12	-0.0777532
81	0x3db84539	0.08997578
82	0xbe36751e	-0.17818114
83	0x3e61706a	0.22015539
84	0x3ca7a01a	0.020462085
85	0xbc2e6f07	-0.010646588
86	0x3ddcedc3	0.10787537
87	0xbe0f7fdf	-0.14013623
88	0x3ea742ff	0.326683
89	0x3d09ca60	0.033640265
90	0x3de9a59d	0.11408541
91	0xbe51a3b0	-0.20472598
92	0x3db97e3e	0.09057282
93	0xbd4237d1	-0.047416512
94	0xbe5233b1	-0.20527531
95	0xbe6131ab	-0.21991603
96	0x3e276b34	0.16349488
97	0xbdd56de6	-0.10421352
98	0x3da38587	0.07984453
99	0x3d96a45e	0.07355569
100	0x3e023ee8	0.1271931
101	0x3be00c59	0.0068374095
102	0x3ddf7470	0.109108806
103	0x3ce6696e	0.028126445
104	0xbe0dd724	-0.13851601
105	0x3dc9e591	0.098582394
106	0xbd2c6090	-0.042084277
107	0x3d9220a8	0.07135135
108	0x3c713475	0.014721979
109	0x3e06b0d0	0.13153386
110	0xbd2348e6	-0.039864443
111	0xbe0007d0	-0.1250298
112	0x3e18561d	0.148766
113	0xbe6571ec	-0.22406739
114	0xbe38de29	-0.18053497
115	0x3d9d2320	0.07672715
116	0xbe714615	-0.2356189
117	0x3da9f61f	0.08298897
118	0xbc36941f	-0.011143713
119	0x3e7fb4cc	0.24971312
120	0x3e27d74d	0.16390724
121	0xbe1438eb	-0.14474837
122	0x3df6c58a	0.12049396
123	0x3c6abc1d	0.014327076
124	0xbe3a85e5	-0.18215139
125	0x3d5847cc	0.052802846
126	0x3e981cc2	0.2970944
127	0xbe192375	-0.14954932
128	0xbe83c44c	-0.257357
129	0x3db9f464	0.09079817
130	0xbd4d95ee	-0.050191812
131	0x3deaa7cc	0.11457786
132	0xbd1de6be	-0.03855013
133	0x3e2c8037	0.16845785
134	0x3d8ad532	0.06778945
135	0x3d1de785	0.038550872
136	0xbd0a1e3b	-0.033720236
137	0x3e095d00	0.13414383
138	0xbc995875	-0.018718937
139	0x3da8fd4f	0.0825144
140	0x3de33f64	0.11096075
141	0x3e479565	0.19490583
142	0x3e2eabc7	0.17057715
143	0x3c9c10a6	0.019050907
144	0x3d9f9710	0.07792485
145	0xbe10d2e6	-0.14142951
146	0x3e1131fa	0.14179221
147	0x3e204cbe	0.15654275
148	0xbdf2f850	-0.11863768
149	0x3def4b68	0.116843045
150	0xbda31f1e	-0.079649195
151	0xbe168f8c	-0.14703196
152	0xbb2e3e4a	-0.002658742
153	0x3e64237b	0.2227916
154	0x3d6804ff	0.05664539
155	0xbe181c05	-0.14854439
156	0xbdf93828	-0.12168914
157	0xbd2ef2b3	-0.042711925
158	0x3daa5c4a	0.08318384
159	0x3da1da76	0.07902996
160	0xbdc3650f	-0.0954076
161	0x3d4f7a36	0.05065366
162	0x3dea5e30	0.11443746
163	0xbd97a5e4	-0.07404688
164	0xbe5ccd75	-0.2156275
165	0xbda817cf	-0.08207666
166	0xbe2a4a59	-0.16629924
167	0x3d0538ba	0.0325248
168	0xbe2b74f4	-0.16743833
169	0xbc8590fe	-0.01630449
170	0x3ced5c2a	0.028974611
171	0x3e7291d2	0.23688439
172	0xbe3eb11c	-0.1862225
173	0x3dad91e7	0.08475094
174	0x3e554f00	0.20830917
175	0xbdb7416a	-0.089480236
176	0x3e39def7	0.1815146
177	0xbd4e0787	-0.050300147
178	0x3db5abe1	0.08870674
179	0x3a9544db	0.0011388318
180	0x3d8a780a	0.06761177
181	0x3c9dffa7	0.019286944
182	0x3b21576b	0.0024618756
183	0xbe679552	-0.22615555
184	0xbd9dc926	-0.07704382
185	0xbd773840	-0.06035638
186	0x3b617558	0.0034402218
187	0x3da6756e	0.08127867
188	0x3e13791a	0.14401665
189	0x3de3d3d1	0.11124385
190	0x3afc8380	0.0019265264
191	0x3ddde033	0.10833778
192	0xbe3c26af	-0.18374132
193	0xbd929099	-0.07156486
194	0x3cbe80f5	0.02325485
195	0xbe0f7029	-0.1400763
196	0x3beb902f	0.007188819
197	0xbd05b09e	-0.03263914
198	0x3cf1a66b	0.0294983
199	0xbd6bbe89	-0.057554755
200	0xbe3875a0	-0.1801362
201	0xbd284da3	-0.041089665
202	0x3e1d804e	0.15380976
203	0x3e12a883	0.14322095
204	0x3e03eb4f	0.12882732
205	0xbdc07c75	-0.09398738
206	0x3e5b453a	0.21413127
207	0x3db342de	0.08752988
208	0x3dc71f46	0.09722762
209	0xbe38cd06	-0.1804696
210	0x3ce5da63	0.028058236
211	0xbded58fd	-0.11589239
212	0xbe4c98ea	-0.19980207
213	0xbd5114be	-0.051045172
214	0x3e41186d	0.18856974
215	0x3e04ec6c	0.12980813
216	0x3dbeca1b	0.09315892
217	0x3c82c634	0.015963651
218	0xbe487a2b	-0.19577853
219	0x3e863e3f	0.26219365
220	0x3d45246b	0.048130434
221	0x3cf80331	0.03027496
222	0x3d3d3743	0.04619528
223	0x3e287927	0.16452466
224	0xbda1880f	-0.07887279
225	0x3e14741b	0.14497416
226	0x3e7f23de	0.24916026
227	0x3d92626f	0.07147681
228	0x3db339ff	0.08751296
229	0x3d95e12d	0.073183395
230	0x3e5bc393	0.21461324
231	0x3db41f55	0.087950386
232	0x3d9975f6	0.074932024
233	0xbd3aeed6	-0.045637928
234	0xbe17cef1	-0.14825036
235	0xbde476df	-0.11155485
236	0x3e291bfc	0.16514581
237	0x3dd2fa7d	0.10301683
238	0xbd3619a2	-0.04445804
239	0x3e4b4205	0.19849403
240	0xbc800c9f	-0.015631018
241	0x3e29a4f7	0.16566835
242	0xbe7c0361	-0.24610664
243	0xbdf752a5	-0.1207631
244	0xbe234bcf	-0.15946887
245	0xbe12f399	-0.14350738
246	0xbdea8343	-0.114508174
247	0xbd4206f5	-0.047369916
248	0xbe0a0faa	-0.13482538
249	0x3e009163	0.1255546
250	0x3d53d234	0.051714137
251	0x3e5223be	0.20521447
252	0x3c1b20fe	0.009468315
253	0xbe4bc9fb	-0.19901268
254	0xbd31e69b	-0.043432813
255	0x3d6b3d10	0.05743128
