data/processed/gat_model.pt (torch, 102999 bytes, 24 tensors)

convs.0.convs.<user___rates___item>.att_src f4 [1, 2, 32]
00000000: a353 2cbe 9d4f f1bd a229 f13d 75f3 88be
00000010: a899 0fbd 1cfa a1be 5fb1 8e3e d3f5 813e
00000020: d722 ca3d d82a cfbc f791 04bf 2054 a43e
00000030: 27c4 d53e 4ae6 493e dff0 1a3e 83ce 913e
00000040: ea31 2a3e f785 debd 1c2c febe 452e 603d
00000050: d3a0 dabd adbd 8fbe 2505 fbbe df6e d9bd
00000060: 78bc b13e 86a0 e63e cc6c 853e 23dd ef3e
00000070: f768 78bc 5220 18be 1140 d9be 0198 733d
00000080: 2088 4fbe 0e44 fb3e 13cb 0e3f 1190 7d3d
00000090: 3bdd 9f3e 1eef c93e 7c86 333c ab6b b03c
000000a0: 9fca 76bc bbce 2fbe bde5 003e b8d8 9cbc
000000b0: dcf5 a13e bff6 42be ba7b 06bf 204c 15bf
000000c0: f0d1 0f3f 1044 e1bc 246e 0cbf fbde 023f
000000d0: e8d5 423e 894e 3d3d b2ce 773e c164 0dbe
000000e0: 7798 80be 8fd9 97be 1104 993e bbaf 51be
000000f0: 9bd1 a53e 68b9 203e 515d acbe 414c 333e
-0.1682878 -0.11782763 0.11775519 -0.26748243 -0.035058647 -0.3163613 0.27869698 0.25382861
0.098699264 -0.025288984 -0.51785225 0.32095432 0.41751215 0.19716755 0.15130948 0.28477868
0.16620603 -0.108653955 -0.49643028 0.054731626 -0.10675206 -0.280744 -0.49027362 -0.1061685
0.34714103 0.45044345 0.26059568 0.468484 -0.015161744 -0.14856079 -0.4243169 0.059471134
-0.20266771 0.4907536 0.55778617 0.06190497 0.31223473 0.39440244 0.010957357 0.021535715
-0.015062957 -0.17168705 0.12587638 -0.019146308 0.31632888 -0.19039439 -0.5253254 -0.5831928
0.56179714 -0.027498275 -0.5485556 0.5112149 0.19026911 0.046217475 0.24199942 -0.13807966
-0.2511632 -0.29658172 0.29885915 -0.20477192 0.3238648 0.15695727 -0.33664945 0.17509557

convs.0.convs.<user___rates___item>.att_dst f4 [1, 2, 32]
00000000: de8c 923e 081f d9be 6650 a4be 4ecc c9bd
00000010: 0674 cd3e 363b 83be ef62 9b3d 7884 43bd
00000020: c571 223e d5fe dbbe a024 18bf b0c3 a53e
00000030: a0a3 653e c578 6fbd 6aae 7a3e 814d 29be
00000040: 4e6d 0a3d ff69 e83e 7843 0cbe 9f95 ae3e
00000050: 0727 01bf 85b5 bdbe 1dd4 8ebe ac64 16be
00000060: 5a28 7dbe 29c0 cbbe 41bb aebe 8e5d 2abe
00000070: c745 bebe 271f c13e c3aa da3d a955 08be
00000080: afcb 6fbe 2da7 08be f9cf 8c3e e1d6 363e
00000090: 7da9 9c3d ba00 853e 60c1 54be f4dc 16bd
000000a0: 3fae 713e b1c4 b9be 3438 a5bb bf08 8f3e
000000b0: eee8 92bc 3c11 b73e c28f a63d 9cb5 9abe
000000c0: 6fd6 8dbe 5227 c23c bf88 72be 835d cd3e
000000d0: 04c3 c0be 45b8 39be 1505 4e3b 850f 303e
000000e0: 389d d83e 5a08 83be dffc 81be 6787 543c
000000f0: 444e 8dbe c972 3c3e 5fae a5be 4b3f 6c3d
0.28623098 -0.42406487 -0.3209259 -0.09853421 0.4012758 -0.25631112 0.075872295 -0.047733754
0.15863712 -0.4296786 -0.59430885 0.3237586 0.22425699 -0.058464784 0.24480596 -0.16533472
0.033795647 0.4539337 -0.13697612 0.34098527 -0.50450176 -0.3705255 -0.27896205 -0.14686841
-0.24722424 -0.39795044 -0.34127238 -0.16637251 -0.3716261 0.3771908 0.106771015 -0.13313927
-0.23417543 -0.13345022 0.2750242 0.17855407 0.07649515 0.25977117 -0.20776892 -0.03683181
0.23601626 -0.36282876 -0.0050421003 0.2793636 -0.017933335 0.35755336 0.081328884 -0.30216682
-0.27702662 0.02370039 -0.23684977 0.40110406 -0.37648785 -0.181367 0.0031436135 0.1719342
0.42307448 -0.2559231 -0.25388238 0.012971736 -0.27598774 0.18403162 -0.32359597 0.05767755

convs.0.convs.<user___rates___item>.bias f4 [64]
00000000: ce81 82be fe5d 6bbe 9dde 613e 58d8 603c
00000010: aeee a4bd ab7b 32be e5d8 503e dcb3 b0bd
00000020: ab9e 7b3d c979 febd b4ba 0fbc cf1c a13d
00000030: 35fb 543e b057 843e b7f4 043e 31df 3c3e
00000040: 6a6d bcbd d52c d23a face 6e3c 5791 243e
00000050: bfae e03d b093 86bd 79b9 f1bd a81d 40bc
00000060: 92a0 163e 7bc5 d03d 4529 bdbd 2b7f 433e
00000070: 1404 5bbd 04e6 22be 07c4 17be b415 18be
00000080: 081f e6bd d44f 603e 4169 c83b 069e 0cbe
00000090: 379e be3d 6343 643c eb0b 173e de54 fcbd
000000a0: 700e b33d 4ed0 a3bd b213 17be f8a2 823e
000000b0: be75 cfbb 7b37 56bd 90e6 b2bd edf8 ae3c
000000c0: 1cce c73c aa64 233d 1d10 37be d870 fd3d
000000d0: f4d1 3d3e 64ea f7bc 6d2c 8bbd dd6b 193e
000000e0: e04a e03d 7802 5fbe 9455 78bd 98c5 12be
000000f0: 6a9e 5abd bd8a 4f3d 8fa8 98bd ba00 0ebe
-0.25489658 -0.22985074 0.22057576 0.013723455 -0.08053337 -0.17429988 0.20395239 -0.086280555
0.061430614 -0.124255724 -0.008772541 0.07866823 0.20798953 0.2584815 0.12983976 0.18444516
-0.092005566 0.001603509 0.014575714 0.16071068 0.1097083 -0.06571138 -0.11802954 -0.011725821
0.1470969 0.101939164 -0.09236387 0.1909148 -0.053470686 -0.15908056 -0.14820872 -0.14852029
-0.112363875 0.21905452 0.006116063 -0.13732156 0.09307521 0.013932082 0.1475064 -0.12320875
0.08742988 -0.07998715 -0.14753607 0.2551496 -0.0063311746 -0.052299004 -0.087353826 0.021358931
0.024390273 0.039890923 -0.1787724 0.12375039 0.18537122 -0.030263133 -0.06795583 0.14982553
0.10951781 -0.21778286 -0.06062849 -0.14333189 -0.05337373 0.05066942 -0.07454025 -0.13867465

convs.0.convs.<user___rates___item>.lin_src.weight f4 [64, 8]
00000000: 0456 5e3e 473a 1ebd 9155 503e e097 323e
00000010: a6ce 0cbf 9a28 bebe 8bcf 6dbd a9fa a7bd
00000020: 8442 ca3d e8fe 05be b2fa 363e c836 2ebe
00000030: 1541 d8be 9d4b 27bf f6b9 b6bd a7d8 623e
00000040: 8578 28bd 4019 8e3d 114a e13c c6ac c13e
00000050: a9f5 053f e00f b93e 932a 9bbd af17 20be
00000060: 50ad bc3d 0cc5 2a3d 0472 803d c55d ac3e
00000070: e561 13bf 8d3b 203e 44dd 04bd 187d 19be
00000080: 258c d1bd 63d2 2cbe 2d6a 743e 7f94 0c3d
00000090: 5c9d 17be 8129 f6be 7323 02be 985e 913e
000000a0: a8ec 033e 7e86 733e bff3 3e3e fe27 053d
000000b0: 3498 aabe e6d5 72bd d2a3 31be ecf5 e6bc
000000c0: 7b46 64be 0b43 6cbe c298 823e c918 9dbe
000000d0: 5384 0a3f c75f 9a3e f21d 153d 12c4 bcbc
000000e0: 993f cebe f79d 86bd 5380 aebe 3ff1 45be
000000f0: 515a d43e 9f8a 9bbd 68e3 d2be 4e40 b9be
00000100: a228 02be 99ac d63b 2db8 abbd cebd 17be
00000110: fe29 a03d 7b4e 873e 849e 803e df77 253e
00000120: e1fb 0f3e ad42 d5be dc4b 78be e185 da3d
00000130: 0a6c 28bd 006d ebbd 283b a93a eed0 703e
00000140: a3fb cb3c 091c b53d 5b51 7c3e 951a 57bc
00000150: 851f 16be 99c3 453e e933 15bd 31aa 463e
00000160: 0dd6 9dbe 1444 8ebe 6948 19be a114 ab3d
00000170: 6aa2 c13d 9569 8dbd bf9d b3bd e162 543d
00000180: f2af 9fbe 3071 323e eaa0 ac3d cc0f c7bd
00000190: 349b 103f 6d6b fe3d ec7b 64bd 1dc9 ac3e
000001a0: b978 f2bc 5005 363e 64e1 e1bd a0b0 723e
000001b0: 9f26 f73e cd33 993e eff4 82be 5b7a 72bd
000001c0: 8281 50be 94c3 b8bd 55d5 783e 1df4 34be
000001d0: c5f6 053f cda7 043e cf4e 9b3e 3bff dfbd
000001e0: 46de 47be c8dc 443e 09a4 0f3d 4168 dbbd
000001f0: 44ad 163e f778 113e b4d4 0c3d 358a 503e
00000200: 0a5d e53d a583 74be ae5d 6fbd 5c95 ccbc
00000210: 0a51 bdbd 9013 6dbc de3b ccbd 4769 08be
00000220: 6bc2 473d 5b54 753e c9ae 98be d236 6abb
00000230: 66be e8be 62f8 25be 19cd 683c 6316 023e
00000240: 9b3d fb3c c31e 0ebe ffd7 323e d0eb 09be
00000250: a28e c1be befc 3e3e e386 8f3e 6fba 243e
00000260: 654d 5abe 2b73 e73c 10b6 1a3e ef38 bd3e
00000270: ce96 893e fb6b d03e bbde 683d 09ff 383e
00000280: 2cc1 4ebe aaf0 babc 0ca6 953e 164e 2b3e
00000290: 6423 cb3e 3108 143e 86de 9f3e 0632 693d
000002a0: 51d3 3f3e e97a bb3e 6fa4 9ebc ce4f 9e3e
000002b0: 1f49 a3be f08a 20be fcf3 bdbc 53e4 fa3d
000002c0: 288a 823e f0bd 143e c31a 853e 88fd 513e
000002d0: cb4b 0cbf 15be debe 7732 ffbd dd6a 963e
000002e0: 8307 063e 5524 093e 5dd5 71be dc3a c3bc
000002f0: 5858 b0be 4fab c63d 41e1 7dbe 6da8 54bd
00000300: ea04 0cbe 6998 03be 0d62 88bd fc07 5dbe
00000310: 0903 c63d b29a 4abd 428c df3d 37ea 3b3e
00000320: b024 36be 3cda a9be 269b 523e d68f 1d3d
00000330: 1918 1e3f 624f 03be 1392 943e 26d9 4abe
00000340: c557 253e 49fa 993c a086 483d ff0d 023d
00000350: 67e5 653e b54e 233e 9a83 4abe 5aa7 80be
00000360: 02eb 7fbe d944 f739 28da 1e3d 1f76 2b3e
00000370: a5e8 423e 9ec4 543e 0a9d 0a3e 0792 863d
00000380: 1f3e d73d 764d d2bd dc22 1cbe 7c27 79be
00000390: 0a78 80be fa6e 703e 4c78 17be 313e 0bbe
000003a0: 6725 9a3e 3862 483e 50e3 9abe b80f 673e
000003b0: 17f8 0dbf 6ec6 80be f152 98be b7e8 cdbb
000003c0: 63c5 193e b3d5 f3bd acd0 9cbd cd64 89bd
000003d0: 1d94 98be 7f25 f3bc 9cee 173e 4676 0f3e
000003e0: 63b5 1c3e a169 e5bd c0ca aa3d 33c3 303d
000003f0: 9126 4bbe 18d1 edbe f1f5 70be 5fa2 e3bd
0.217125 -0.038629796 0.20345141 0.17440748 -0.5500282 -0.37140352 -0.058059257 -0.082021065
0.09875968 -0.1308552 0.1786907 -0.17013085 -0.42237154 -0.6534975 -0.08922188 0.22152959
-0.04113056 0.0693841 0.027501138 0.37827128 0.5232797 0.36144924 -0.0757648 -0.15634035
0.09212744 0.041691825 0.06271747 0.3366529 -0.5757125 0.15647717 -0.032437578 -0.14989126
-0.102318086 -0.16877131 0.23868628 0.034321304 -0.14806122 -0.4807854 -0.12708835 0.28392482
0.12883246 0.23781773 0.1864767 0.032508843 -0.33319247 -0.05928602 -0.17347649 -0.028193437
-0.22292511 -0.2307245 0.2550717 -0.30682972 0.5410816 0.30151197 0.03640551 -0.023042712
-0.40282896 -0.06573098 -0.3408228 -0.1933031 0.41475156 -0.07594799 -0.41189122 -0.36181873
-0.12710813 0.006551337 -0.08384738 -0.14818498 0.078205094 0.26427063 0.25120938 0.16159008
0.14060928 -0.41652432 -0.24247688 0.106700666 -0.04111866 -0.114953995 0.0012911307 0.235172
0.024900263 0.08843238 0.2464041 -0.013128896 -0.14660461 0.19312896 -0.03642646 0.1940086
-0.3082737 -0.27786314 -0.14969029 0.08353544 0.09454806 -0.06904904 -0.08770322 0.05185211
-0.31188923 0.1742599 0.084291294 -0.0971981 0.5648682 0.124228336 -0.055782244 0.33747187
-0.02959858 0.17775464 -0.11029318 0.2370019 0.48271653 0.29922333 -0.25577495 -0.05919872
-0.20361903 -0.090216786 0.2430013 -0.17671247 0.52329665 0.12954636 0.30333564 -0.10937353
-0.19518384 0.19224846 0.035068545 -0.10713244 0.14714533 0.142063 0.034382537 0.20365222
0.111993864 -0.23878343 -0.05843895 -0.024973564 -0.092439726 -0.014469996 -0.09972356 -0.1332141
0.048769396 0.2395796 -0.2982085 -0.0035738242 -0.45457762 -0.16208032 0.014209055 0.12703852
0.030669024 -0.13878922 0.17465208 -0.13468862 -0.37804133 0.18651101 0.28032598 0.16086744
-0.21318586 0.028253159 0.15108514 0.369575 0.26872867 0.40707383 0.056853037 0.18066038
-0.20190877 -0.022819836 0.29228246 0.16729006 0.39675438 0.1445625 0.3122446 0.05693247
0.18732955 0.3661721 -0.019365517 0.3092026 -0.31891724 -0.15678 -0.02318763 0.12250581
0.2549603 0.1452558 0.2599698 0.20506871 -0.5480315 -0.43504396 -0.12460797 0.29378405
0.13088803 0.13392766 -0.23616548 -0.023831777 -0.344424 0.09700643 -0.24792959 -0.051918436
-0.1367375 -0.12851109 -0.06659327 -0.21585077 0.09668548 -0.049463935 0.10915424 0.18351065
-0.17787433 -0.33174312 0.20566997 0.03846725 0.6175552 -0.12823251 0.29017696 -0.19809398
0.16146763 0.018796103 0.048956513 0.03175163 0.22450791 0.15947993 -0.19776765 -0.2512768
-0.24991992 0.00047162807 0.03878227 0.16744278 0.1903406 0.20778129 0.13536468 0.06570821
0.105098955 -0.10268681 -0.15247673 -0.24331468 -0.25091583 0.23479834 -0.14791983 -0.13597943
0.3010666 0.19568717 -0.3025155 0.2256459 -0.5545668 -0.2515139 -0.2975078 -0.0062838453
0.15016703 -0.11905994 -0.076569885 -0.06708679 -0.298005 -0.029680965 0.14837116 0.14009961
0.15303569 -0.11201788 0.08339453 0.043154906 -0.1983893 -0.46448588 -0.23531319 -0.11114954

convs.0.convs.<user___rates___item>.lin_dst.weight f4 [64, 8]
00000000: d038 0b3e 1f79 12be e7a5 a53d 48c7 f93e
00000010: ccc8 4e3d 73d6 00be 5c25 14be 29bd 6a3e
00000020: 1ce3 e43d 3917 993d 273c 89bd 39e6 a9be
00000030: 8de4 36bb 8fb0 1f3e 802a b43e c8d9 19be
00000040: b6db 83be 4566 47be 9ab6 aabd 8042 e9be
00000050: 553b 54be 38a4 4d3d 6b47 d83e 45a9 aabe
00000060: 62a6 c43c 6cc6 3dbe d5c5 87be 2e2c ccbe
00000070: dacd c4bc 4114 b4bd 7a35 593e be8a ccbd
00000080: 21d3 dbbd b570 763d 3770 833e 8db9 883e
00000090: 0f39 543e 22b4 8fbd a3b5 853d 21e7 923e
000000a0: 2512 1abe 6e96 d83c dce6 02be 5a18 a9be
000000b0: fe49 903d 9d18 5d3e d8bc f0bb e679 2f3d
000000c0: fb72 0d3e e110 19bd 5cdd e53d b1f1 ab3e
000000d0: a5ea f43c 3e89 183e 7275 c7be 2371 913e
000000e0: 6f6e 31bd b5c4 18be a241 67be d063 2dbf
000000f0: a46c 4b3e 9ea9 843e ba3f 093d 7f05 68be
00000100: 2583 30be b227 9abd 7aae 7d3e 8c24 5f3e
00000110: 6b80 ab3c 2015 9d3d f869 3a3d 9c43 863e
00000120: 657a 39be 172b 77be 1728 c6be 560f 8cbe
00000130: 741c 3c3e bea0 cabc d7b6 903c 64ef 15be
00000140: 63f7 3e3d 56dc 723e 58b0 bfbe deaf 12bf
00000150: 5836 373e af71 30bb b7a1 923e 37dc d5be
00000160: c421 01be c6b3 723e 3655 c2bd 5f0b 203f
00000170: 1cc9 14bd d404 af3d 8735 e8bd 163b 72bd
00000180: 6bdc e43d 9c77 17be b4b3 6f3e ec0a e03e
00000190: f446 53be ca38 f63d eba7 4cbc c845 cf3e
000001a0: 9d97 0e3d dbd1 08be 6f9b 92bd b7c9 8cbd
000001b0: e5ce 943e 16b2 a93c 296b e23e b3fc 10bd
000001c0: f9cd 803e dbb8 c8bd c0d6 d63b 18f2 873e
000001d0: bdd0 98bd 0406 babd 2011 d1be 7843 563e
000001e0: f258 c2bd 05ef c43c fdb4 1cbd 14c3 1abf
000001f0: 152e d53d 384d 5c3e eb9f 8f3e 2db7 1a3d
00000200: 2ceb f1bd f0d1 18be a305 fa3d cfe3 c23e
00000210: 3a67 933e fa45 89bc 69fe 76be 1cd7 37bd
00000220: d14b 8d3d a958 f5bd 3dae 083e 3974 0f3f
00000230: a267 b13d fe4c 813d 45cd 75be 0844 a23e
00000240: 4357 2a3e 4d07 7dbe 2e13 ae3d 7888 2fbf
00000250: 8b30 d7bd 048b 123e 3cd2 3b3e f2b5 88bd
00000260: 186f de3d fef5 0c3d f96e c23e 88f7 fa3e
00000270: 5fca 483d b494 61bd 01e6 49be 97fb f4bc
00000280: c932 9a3d 5a9a 8a3e 7a15 e7bd 7cdf fbbe
00000290: 7804 4ebe 8088 6a3b 4de8 7f3e d74d d4be
000002a0: efd0 2ebe f552 cdbd b335 88be a17a 85be
000002b0: 9556 453e bf58 523e 8eaa 973d 4936 d0be
000002c0: c84b 08be e82e 3a3d 1bbb b3bd 01fc 29bf
000002d0: 9b8b 993c 782d ad3c ca30 cbbd deb7 98be
000002e0: c943 b63c 27fe b7bd 584a bbbe 502a 9ebe
000002f0: 4def bfbd d3ff 833e 5c08 ea3e 14a6 43be
00000300: 23f8 8e3d 7ffc d13d 0c3b b2be fad2 1cbf
00000310: f5bb 87be 7fd5 9f3d 1a1d 253c 6eff 77be
00000320: 077e 58bd 4e15 4abe 7be7 aa3d 29f9 b9be
00000330: 2b2b 45bd 611f 0e3e 687d cfbd 4c77 78be
00000340: 8ade fbbd 1dd7 193e d592 a2be 099f 2cbf
00000350: 0498 70bd 1b33 c23d 2edb 873e c221 f33d
00000360: 5e19 35be e579 90be 8175 82be d007 6cbe
00000370: dea4 4f3e f4d7 183e 9410 ed3d 8e28 c7be
00000380: 476f 62bd 3f52 4dbe ec17 9cbe fedb 27bf
00000390: c43e 643b a20b 64be 4df0 01be 62b0 bfbe
000003a0: e869 713d 0d94 b7bc c446 4bbd 17a8 363f
000003b0: e6e3 663d a9c8 423e 6131 c53c 68f7 b33e
000003c0: bad1 0abe 4371 adbd 612f 2e3e 86ec 723e
000003d0: e72a e33a 32e0 6abe 9e13 aabe c40a df3d
000003e0: fcb7 b3bc 0eb6 5bbe 2140 9cbe f1e5 aabe
000003f0: f9f6 31be def3 72be 23c2 cb3c 5abd 96be
0.13595891 -0.14304017 0.08088284 0.48784852 0.050484464 -0.12581806 -0.14467376 0.22923721
0.1117613 0.074751325 -0.06700926 -0.33183458 -0.0027907223 0.15594696 0.35188675 -0.15024483
-0.25753564 -0.19472606 -0.0833561 -0.45558548 -0.20725758 0.05020544 0.42241988 -0.33332267
0.024005119 -0.18532723 -0.2651812 -0.39877456 -0.024023939 -0.087929256 0.21211806 -0.099874005
-0.10733629 0.06016608 0.2567155 0.26704064 0.20724891 -0.070167795 0.06528785 0.28691962
-0.15045984 0.026438918 -0.12783378 -0.3302639 0.07045363 0.2159142 -0.0073467307 0.04284086
0.13813393 -0.037369613 0.112238616 0.33582833 0.029897043 0.14896104 -0.3895679 0.2840663
-0.04331821 -0.14918788 -0.2258363 -0.67730427 0.19865662 0.25910658 0.03350804 -0.22658347
-0.17237528 -0.075271025 0.24773589 0.21791285 0.020935258 0.07670045 0.045511216 0.26223457
-0.18113096 -0.24137531 -0.3870246 -0.2735545 0.18370229 -0.024734851 0.01766531 -0.14642102
0.046622645 0.23716864 -0.37439227 -0.572996 0.17891824 -0.002692323 0.28639004 -0.41769573
-0.12610537 0.2370139 -0.09488909 0.6251735 -0.036324605 0.08545843 -0.113383345 -0.05913838
0.11174854 -0.14791721 0.23408395 0.43758333 -0.20632535 0.120225504 -0.012491207 0.40482926
0.03481256 -0.13361304 -0.07158553 -0.068744116 0.29064098 0.0207148 0.44222382 -0.035397243
0.25157145 -0.098008834 0.006556362 0.2655189 -0.07461689 -0.09083179 -0.40833378 0.20924175
-0.09489621 0.024039755 -0.03825854 -0.60453916 0.1040918 0.21513832 0.28051695 0.037772346
-0.118124336 -0.14923835 0.12208106 0.3806443 0.28789693 -0.016757 -0.24120487 -0.04488288
0.068992265 -0.11979801 0.13347717 0.56036717 0.086623445 0.06313513 -0.24004085 0.3169253
0.1663485 -0.24709816 0.08499752 -0.6856761 -0.10507306 0.14310843 0.18341917 -0.06675328
0.10861033 0.034414284 0.3797529 0.49016976 0.04902112 -0.055073455 -0.19716646 -0.029905124
0.07529218 0.27070886 -0.11283393 -0.49193943 -0.20118892 0.0035786927 0.2499096 -0.41465637
-0.1707189 -0.100255884 -0.2660347 -0.2607012 0.1927131 0.20541666 0.074055776 -0.40666416
-0.13310158 0.04545489 -0.08775922 -0.6640015 0.018743327 0.021139845 -0.09921415 -0.2982778
0.02224912 -0.089840226 -0.36580157 -0.30891657 -0.09371815 0.25781116 0.45709503 -0.19106323
0.06980922 0.10253238 -0.34810674 -0.61259425 -0.26510587 0.07804393 0.010077739 -0.24218532
-0.052854564 -0.1973469 0.08344933 -0.36322907 -0.04813687 0.13879158 -0.10131341 -0.24264258
-0.12298305 0.15023465 -0.3175265 -0.6743017 -0.058738723 0.09482404 0.26534408 0.11871673
-0.17685458 -0.28217998 -0.25480273 -0.23049855 0.20277736 0.1492613 0.11575428 -0.38898128
-0.055281904 -0.20050906 -0.30487 -0.65570056 0.003482745 -0.22270063 -0.12689324 -0.37439257
0.05893889 -0.022409463 -0.049628034 0.71350235 0.056369685 0.19021858 0.024071397 0.35149693
-0.13556567 -0.084688686 0.17010261 0.23723039 0.0017331511 -0.22937086 -0.33218092 0.10890725
-0.021938317 -0.21456167 -0.30517676 -0.33378556 -0.17379369 -0.2372584 0.024872845 -0.2944134

convs.0.convs.<item___rev_rates___user>.att_src f4 [1, 2, 32]
00000000: b2ac a7bd a575 e23d 4f02 803e d6b0 f6bd
00000010: 2b96 c5be 20ee 123f 279c b63d 5ed5 7b3d
00000020: 9ce0 493e 0b7b 113e 14a4 8f3e 0122 bbbe
00000030: 8c56 dbbc d0ea ed3b 7f10 55be 0157 00be
00000040: 89f0 a1bd 9708 f9bd 6389 d5be ec47 e73e
00000050: cac2 193e 13d4 213c c66a b83e 7715 a93e
00000060: 1596 e83e bd3a e33d ee4e 03bc 0e69 2fbc
00000070: 2560 44be 3647 11be 0a18 353d 4054 06bf
00000080: ebe4 9abd 8d6a 9bbd bbac c7bd 6510 783e
00000090: a5cb 8cbc 0642 e63e cb14 1ebf e8ab 243e
000000a0: 9482 23be bed9 973c 7440 0a3e 5c0a eebd
000000b0: b141 1f3e 7a1e db3e f0be abbe ee03 8a3e
000000c0: 2795 073f c83f b8ba f2c4 dd3e d841 353e
000000d0: 1f03 2b3e 6093 bd3e 29a5 5c3e e99b 3f3c
000000e0: 7840 8b3d 7e1a f7bd d70e 0c3f 52e5 9d3e
000000f0: 43ba e03d c349 e0be eff0 b2bd 7f2a 36be
-0.08187236 0.11057595 0.2500176 -0.120454475 -0.38591132 0.573946 0.089165024 0.06148278
0.19714588 0.14207093 0.2805487 -0.3654938 -0.026774667 0.007260658 -0.20807074 -0.1253319
-0.079072066 -0.121598415 -0.4170638 0.4517206 0.15015712 0.009877223 0.36018962 0.3302419
0.45427004 0.11095188 -0.008014424 -0.010706199 -0.19177301 -0.14187321 0.04421238 -0.52472305
-0.07563194 -0.07588682 -0.097497426 0.24225004 -0.017186949 0.44972247 -0.6175048 0.16081202
-0.1596778 0.018536445 0.1350115 -0.1162307 0.15552403 0.4279669 -0.3354411 0.26956123
0.52961963 -0.0014057094 0.4331432 0.17700899 0.1670041 0.370265 0.21547379 0.011694887
0.06799406 -0.120656 0.54710144 0.3083902 0.109730266 -0.43806276 -0.08737361 -0.17789648

convs.0.convs.<item___rev_rates___user>.att_dst f4 [1, 2, 32]
00000000: 7235 acbd 6322 76be 7ffc e33e 761c 163e
00000010: d601 dc3c 36ff 343e e803 233e cdc1 723c
00000020: 9c27 b7be 18ed 98bd ac7f 523e 8394 693e
00000030: 042c 943e f379 ca3e e71d 3abe 8c6f 93be
00000040: 062c b43e f016 113e 5fe3 c3bd ab7e 743e
00000050: fb13 b53e fb15 a7be 7152 b93e acf9 c33d
00000060: e229 5b3d 00ad 813e d408 d9be fe0b afbe
00000070: 55fc dcbe 8fc1 bb3e 0d03 36be e0ce bc3d
00000080: 25b5 253d 03b0 ca3d 725c 523d e7ff 59bd
00000090: 6401 773e 75a8 cebe e394 ed3d 2f58 8d3e
000000a0: 10b5 873e 08ad c6bd ee5f ea3e b0ef bbbe
000000b0: f539 cebe d7da d03e e5b9 533d a80c bd3e
000000c0: ccfc 9a3d dfd7 02be 01a2 d9bd ffdd be3e
000000d0: 3648 e63e 4556 853d eac0 bd3d 20ab 1e3e
000000e0: 2c2c 90be 1cf8 123b 5b76 f53e 1539 e63e
000000f0: 656b 0b3e fb94 6d3b d9f4 5d3e ee3b 993e
-0.084086314 -0.24036555 0.44528577 0.14659294 0.026856344 0.1767548 0.15919459 0.0148167135
-0.35772407 -0.07467097 0.20556515 0.22810559 0.2893983 0.39546165 -0.1817547 -0.2879604
0.35189837 0.14168906 -0.09564852 0.23876445 0.35366806 -0.32633957 0.3619571 0.095691055
0.05350674 0.253273 -0.42389548 -0.34188837 -0.43161264 0.3667111 -0.17774601 0.09219146
0.040455956 0.09896853 0.051357694 -0.053222563 0.24121624 -0.40362898 0.116006635 0.2760634
0.26505327 -0.09700972 0.45776314 -0.36706305 -0.40278593 0.40791962 0.051690955 0.36923718
0.075677484 -0.12777661 -0.10626603 0.37278745 0.44976968 0.06510595 0.09265311 0.15494967
-0.281587 0.0022425717 0.4794186 0.44965425 0.13615187 0.003625213 0.21675433 0.29928535

convs.0.convs.<item___rev_rates___user>.bias f4 [64]
00000000: fa3c 2c3d 7ce9 a33d c758 5a3d 8078 3bbd
00000010: e385 b23c 2df9 ba3d c0e8 aebd dfae 79bd
00000020: fa1e b3bc 5e97 f9bc 39ce fdbc 8537 103d
00000030: 14ef d23d be8c fdbc be74 0c3d d62a e23d
00000040: 0261 3dbd 4fe5 e73c bb2c 31bc dded 0a3d
00000050: eaf5 f43c 05ea 5d3d ad04 79bd 414a cd3c
00000060: 64c4 72bd bd3f b03d e06d 843d e8ae 81bd
00000070: 699f 44bc 3e3b 24bd 0570 773c 573a c8bc
00000080: 2fc0 4cbd 2e2a 273c 7de3 b13c 4952 17ba
00000090: f215 b03b 6f36 df3c e26e d83c 4707 bbbc
000000a0: 34db 6cbd bbb0 073d cba4 823d 40bb e5bc
000000b0: 0afe 65b9 1cc2 793d 0db1 fdbd 80ea 2bbc
000000c0: be8e 173d 09aa 903d 8180 0c3b 9f10 0c3c
000000d0: 03ff 38bd c4e5 ac3b 93e9 d03d ad49 5b3b
000000e0: 2d0e ec3d 8ae0 60bb 5146 d43d 8030 1e3c
000000f0: ad7a 32bd c7bd 0bbd efd7 223d 398b dbbc
0.04205034 0.08003518 0.05330732 -0.045769215 0.021792358 0.09129558 -0.08540487 -0.060957786
-0.021865357 -0.030467685 -0.030982124 0.035209198 0.10299507 -0.0309509 0.03429102 0.110433266
-0.046235092 0.028307585 -0.010813887 0.03391825 0.029902417 0.054178257 -0.060795475 0.025059821
-0.059269324 0.08605907 0.064662695 -0.06332189 -0.012000897 -0.04009556 0.015102391 -0.024441881
-0.049987968 0.0102029275 0.02171492 -0.00057724543 0.00537371 0.027247636 0.02642006 -0.022830619
-0.057826236 0.033127528 0.06379088 -0.02804339 -0.00021933779 0.060976133 -0.123872854 -0.010492921
0.037001364 0.07063682 0.00214389 0.008548885 -0.045165073 0.0052764136 0.10200801 0.0033460662
0.11526141 -0.0034313523 0.10364974 0.009655118 -0.043574024 -0.034116533 0.03975671 -0.026799785

convs.0.convs.<item___rev_rates___user>.lin_src.weight f4 [64, 8]
00000000: 64d8 ec3d a371 59be 58d1 6ebe b42c d5be
00000010: bf7d 9cbe b9ad c03e 8f2e aabe 79bf 363e
00000020: 4fec 91bd 409c 14be 76bb 4f3e f9e4 a6be
00000030: 37e7 a2bd ee61 07be 6946 823e 486f 6c3c
00000040: 18cd 313e be69 b7bc 25a9 9abe 5295 0ebf
00000050: 92ce 7fbe 2ae0 2bbd fdfb 2d3d 5bf4 30be
00000060: eb0a 4cbd 86e1 5ebb fe82 de3d bded 0c3e
00000070: 438f d13d 74ce d7be db90 99bd d194 9bbc
00000080: e57d 41be 7e5f 28be 033b a0bd bc2a 883c
00000090: 58e5 853e 7796 bebd f34c ad3c e9b0 2d3e
000000a0: 3aa6 913d 1763 52be da90 51be 8175 2cbe
000000b0: 142d b7bd 4bb3 943e 75d2 7b3d 9c4b f9bd
000000c0: d7b6 34be 1f75 81bb 6c92 51be 06cb 8a3e
000000d0: ed09 12be e05e 1fbe 086b 16be aad8 6cbe
000000e0: 471e 1f3d 2021 553e 2cab 303e d226 9c3e
000000f0: 2ee8 8abe 3214 41be 55ca 9c3c 636c ccbd
00000100: 2ddc ecbd 990c 0e3e bf03 0c3e ae67 80be
00000110: f535 82be a224 bcbd 3b19 193e b585 15be
00000120: e09e 24be 2430 b03c 2742 8a3e c1f2 a23e
00000130: a4db 663e 2f42 bcbe 1320 8abe e6de 12bc
00000140: 1d7e 70bd f5b1 d2bd 39fe 803e b531 e43e
00000150: 9314 663d 4941 09be 685e 2bbc 4818 e43d
00000160: 02ef 903d 7d3f b53c b09c 423e ed3c b9be
00000170: 1dea 1dbe 332f 393d ae36 d5bd f219 b03d
00000180: 98db 193a 356c 40bc 016b 7fbe 256b 80be
00000190: c18e 0e3d bd87 cabb bc63 193d abfe 65be
000001a0: 319f d7bd 9f75 2bbe cf65 2fbe 1a23 de3e
000001b0: 7b55 783e abc1 92be 2518 d2bd fd2d 173d
000001c0: 9fcd 913d d4f7 793e 3d4b 383d ed4c b9bb
000001d0: e241 61be db89 21be cae7 903e d8b7 a1be
000001e0: e4be 37be cea4 41be 6049 34be 2133 d3be
000001f0: 1cf8 e83b 6126 db3d 0f32 a9bd 6999 0d3d
00000200: e38d 20be 271d 1b3e a403 a03e bd4d b3bd
00000210: c8ff 833e 3956 04bf 7886 febd ac3c a33e
00000220: 1897 2bbe 75c4 b03e 8700 0e3d a400 0ebe
00000230: e314 973e 8c68 183e 72cc 953e 0e91 ccbd
00000240: 7c8f 17be da84 0ebd 62e6 e03d b2d3 d13e
00000250: 59ad 113e 7782 aabc 0e14 013d 2ded 7b3e
00000260: 8e13 883e ea70 8fbe 4deb babe 8d2a d9be
00000270: 007b 6bbe 853c 553e ecd7 54be f34f 81be
00000280: 5365 35bd 4136 853e 9961 59be 8731 a2bd
00000290: 5fa7 fdbd 1603 c43d 5f79 b5bd 09e3 7c3e
000002a0: be5e 163e f5bb 94be bfd5 4abe cbb9 a1be
000002b0: e69a 54bd bea8 b73e b242 2fbd 9b4d b3bd
000002c0: b943 843d 2753 58bd 5011 cc3d b06a 903e
000002d0: 3d69 5d3e 0362 e7be 99c5 79be 9ba1 273d
000002e0: cf0f 16be a1a6 b3bd 4c54 74be 3b5c b8bd
000002f0: f15c 1f3e 87a1 2c3e 98b4 813d b7d1 a83d
00000300: de59 653e c03a 13be 71f6 c03d 0ac7 abbb
00000310: ed8a d7bc e932 13be 638f f13d 6909 c53d
00000320: f598 99bc a6ea 17be 89ce 2e3e eb1c 94be
00000330: 561e 953e a400 f43e 8180 bebc ed15 6abe
00000340: af12 2f3d b03d a5be 6508 6c3e be56 8abe
00000350: 8afd 8f3e 1d1e c73e 3d55 403e 42dc a5be
00000360: 2ea5 4a3c b8e9 b13d 59fd 32be b204 dc3e
00000370: 82a8 a4bd 6aa0 21be e956 843d 55c1 9a3d
00000380: 34e6 3a3c a7cb 90be f059 3f3e 9712 a63e
00000390: ad59 f33d a12b c6be 45a9 873e f11f 863e
000003a0: 81c5 173e 08d4 8ebe d3c0 4a3e 97a9 a63d
000003b0: 1404 213d 28b9 cb3d 2613 aa3d a552 2b3e
000003c0: 9823 843d 271e 863d c09a 223e 57eb ccbe
000003d0: 67b7 33bc c1f5 2fbe 40bd da3d 3d16 7abe
000003e0: 0218 97bd 2d19 763e 5ae3 873e 81e1 0abe
000003f0: f08b 11bd b968 67be 11f9 e33d ebc6 1b3e
0.11564711 -0.21234755 -0.23322046 -0.41635668 -0.30564687 0.3763254 -0.33238646 0.17846479
-0.071251504 -0.1451273 0.20286354 -0.32596567 -0.07954257 -0.13220951 0.25444344 0.014430828
0.17363393 -0.022389289 -0.30207172 -0.55696595 -0.24981144 -0.041961826 0.042476643 -0.17280714
-0.0498151 -0.0034008934 0.108648285 0.13762565 0.10232403 -0.421497 -0.07498332 -0.01899186
-0.18895681 -0.16442677 -0.078237556 0.01662194 0.26151538 -0.09306043 0.021154856 0.16962017
0.07111783 -0.20545612 -0.20465413 -0.16841699 -0.08944145 0.2904304 0.061480004 -0.121726245
-0.17647873 -0.0039507295 -0.20466012 0.2710802 -0.14261599 -0.15563536 -0.14689267 -0.23129526
0.038847234 0.20813417 0.17252797 0.30498368 -0.27130264 -0.1885536 0.019139448 -0.099816106
-0.11565433 0.13871993 0.13673304 -0.250791 -0.2543179 -0.09186675 0.14951031 -0.14601786
-0.16076231 0.02150733 0.27003595 0.31825832 0.22544724 -0.36769244 -0.26977596 -0.008964276
-0.05871402 -0.10287849 0.25193956 0.44569173 0.056171965 -0.1340381 -0.01045952 0.11137444
0.07076837 0.022125 0.19005084 -0.36179295 -0.15421338 0.04521103 -0.1041082 0.08598699
0.0005869209 -0.011744549 -0.24943163 -0.25081745 0.03480411 -0.006180732 0.03744863 -0.2246043
-0.1052841 -0.16744088 -0.1712868 0.43386155 0.24251358 -0.28663382 -0.102585115 0.036909092
0.07119297 0.24410945 0.044993628 -0.005654922 -0.21997789 -0.15775244 0.2830184 -0.31585574
-0.17943913 -0.18910524 -0.17606115 -0.41249946 0.007109655 0.107006796 -0.08261501 0.03457013
-0.15679125 0.1514784 0.31252778 -0.08755062 0.25781083 -0.51694065 -0.12427992 0.31882226
-0.16756856 0.34524885 0.03466847 -0.13867432 0.29508123 0.14883631 0.29257542 -0.099886045
-0.14800829 -0.034794666 0.10981442 0.40981823 0.14226283 -0.020814164 0.031513266 0.24602194
0.2657742 -0.28015834 -0.36507645 -0.42415276 -0.2299614 0.20823868 -0.20785493 -0.2525631
-0.044286083 0.26017955 -0.21228637 -0.07919603 -0.12385439 0.09570901 -0.0886104 0.24695982
0.14684579 -0.2904965 -0.198081 -0.3158706 -0.051905535 0.35870928 -0.042788215 -0.087550364
0.064582296 -0.052813675 0.099642396 0.28206396 0.21622176 -0.45191965 -0.24391784 0.040925603
-0.14654468 -0.08772016 -0.23860282 -0.090019666 0.15562798 0.16858493 0.06333274 0.08243125
0.22397563 -0.1437788 0.09422005 -0.005242233 -0.026311362 -0.1437489 0.11794927 0.096209355
-0.018749693 -0.14835605 0.17070974 -0.28928313 0.29124707 0.4765674 -0.023254635 -0.22859927
0.042742427 -0.32273626 0.23050077 -0.27019304 0.28123122 0.38890162 0.18782516 -0.32394606
0.0123684835 0.086871564 -0.17479457 0.42972332 -0.08039953 -0.1578385 0.06461889 0.075564064
0.011407424 -0.28280374 0.18686652 0.32436058 0.11882339 -0.3870516 0.2649633 0.26196244
0.14821436 -0.27896142 0.19800119 0.081378154 0.03931053 0.09947425 0.083044335 0.16730745
0.064521015 0.0654872 0.15879345 -0.400233 -0.0109690195 -0.17183591 0.10680628 -0.24422546
-0.07377626 0.24033041 0.26540643 -0.13562585 -0.035533845 -0.22598542 0.1113149 0.152126

convs.0.convs.<item___rev_rates___user>.lin_dst.weight f4 [64, 8]
00000000: 6007 3ebe 3ba3 efbd 80de 4fbe b9db 81be
00000010: 0730 d53d c089 dbbd 7c93 0c3e 37d7 603e
00000020: 10cd 853e 3857 87bd 7a1e 793e a7f2 12be
00000030: b7cf 113e 98ab 81be 5de0 853d 00e6 9c3e
00000040: 9974 9bbd 52d5 8bbe 83b4 143e f9b7 85be
00000050: 0457 8fbe 0d77 a0be 27ee 823e 9cb0 9fbe
00000060: 3e8f 423e f67b ec3c 4e44 5b3e b690 3f3e
00000070: e7c0 eabd 6e9f 54be 1a91 5bbe 3e0c 34bb
00000080: ab5d 01be 527c d33b 13bb 4b3d a4f3 8d3d
00000090: 6a07 1a3e d455 46be 59f5 4ebc 7774 17be
000000a0: 327c 373d c749 c4bd 8b6b 0c3e 09ba 1f3e
000000b0: 745a 80be 0c21 24bd 144a 32bd 3c20 63be
000000c0: 61c0 463e a8e2 6f3c afc1 67be 65d5 53be
000000d0: de47 5e3b 62c5 7d3d 308d 4fbe a5b1 19be
000000e0: 9ee2 303e dc21 a8bd c94d 813b bf2b 64be
000000f0: 8e51 863e 06f4 61be 6086 4d3e fbd5 8bbc
00000100: a5db 4dbe 388a 873e 992b 823e 3019 453b
00000110: 25a0 ce3d 1d64 dcbc ccf2 0f3e 99c5 2bbe
00000120: 0668 7c3c ce97 123e a0e3 4e3e 23be 8ebc
00000130: 720d 9c3e d75a 413e 5437 393e 1e40 8c3e
00000140: fd17 a1bc 4489 4d3e 5eb8 57be dda6 17be
00000150: 4a90 243e cc07 333d 0636 e83d e811 3f3d
00000160: 3995 83be 0090 4f3e 6ed3 3abe 2099 ad3b
00000170: ca50 afbd 8348 81be c1a9 9fbe 1f7e 52be
00000180: 5069 003e 4ebd c83d 51f7 77bd e7b6 66bd
00000190: 5f28 50be 7b59 5abd 859f 823e 2046 fe3b
000001a0: b4d8 7ebc e390 cebd 7b77 69be 6e41 143d
000001b0: 82e0 493e 26a7 22be a6c8 0a3d b549 11bc
000001c0: c26f 4bbe 0944 d23d 7922 873e 22a7 333e
000001d0: 1c6a 8d3e 0707 d6bd bea7 683e 7cd9 b7bd
000001e0: 57c6 1f3e 42bd 2e3e c16c 343e 3e9a 933d
000001f0: 7343 753e ad0b 96bc ad61 7e3e 7179 823e
00000200: eabe 94be 6ec5 423e 9ba4 343e 873d f8bd
00000210: 23df 06be 7739 023e e5c8 3b3d 09d7 ac3c
00000220: ca54 a4bd 11fa 5b3e 1e6e d73d 0509 073e
00000230: 4853 24be 0f4e a7bc 6b7e 533e 79c3 d93d
00000240: c1d4 623e 9be3 9bbd 38d8 35be fc9f 2c3e
00000250: 8f22 78be 114c bc3d d615 1abd 62e7 223e
00000260: 6b82 a43d 2430 113e 8882 0fbd 6b99 1b3d
00000270: a58d 62be e6c3 edbd 5cb9 0f3e a5f7 2a3d
00000280: 0671 243e c0b5 d33b 5475 113e 30bd bc3b
00000290: c939 94be 6ab6 833e 9c7b d8bd cefe b03d
000002a0: cd45 2f3d bde8 243e 904c 823e 66df 713e
000002b0: a72a 4cbe 3c29 f33c 3cc4 043e 8862 6e3e
000002c0: 2757 04be a546 8abd 2369 1bbe 6e5d 30be
000002d0: d0f0 25be 3c40 e1bd 6a14 b23d ce84 9abd
000002e0: 79c8 8cbe 72ab f93d 2593 82bd 816c 33be
000002f0: fb02 7b3e e324 76be 65db 00bc b6f2 92be
00000300: 905d 92be 6227 48be fd69 54be 932d 1d3e
00000310: fa5c 433e c568 c73d 2a32 4dbd 21ef 09be
00000320: 7ce3 e13a 7b49 6a3e adff aa3d de8d 9bbe
00000330: d8f8 6e3e ef80 40be 16fc ce3d efc3 9cbe
00000340: 6be0 9f3e f921 463d 488f 0dbe 4996 dd3d
00000350: ec0a 44be e0b8 e63d 8e58 183e b7f4 603e
00000360: 2035 7c3e 80fc f13d 51fe 703b 6619 9c3e
00000370: 6d51 a7bd 6725 8f3e 7296 b8bd 53e2 1b3d
00000380: d575 333e e2cb 833d 6901 87bb 0ac1 0a3d
00000390: 8948 9a3d 779a 3abe 5f30 95bc 8e94 ec3d
000003a0: 4a55 7b3d 2ff1 0bbd 9a80 2abe a981 193e
000003b0: 021d 493d 08d7 9f3d eacf eebc 0940 d7bd
000003c0: 6b71 e4bb 2898 28be ffc4 86be 3c66 953e
000003d0: 223f 4c3e 1e37 ffbd fde0 19be f4bc 823e
000003e0: 514c 64be 33d2 b53d 0e59 e33d ee3e de3c
000003f0: ac3a 60bc 303e 1fbe d47a 4a3b 9dc3 debd
-0.18557501 -0.117010556 -0.20299721 -0.25362948 0.10409551 -0.10719633 0.13728136 0.21957098
0.26133013 -0.066084325 0.24328032 -0.14350377 0.14239393 -0.25326228 0.065369345 0.30644226
-0.075905986 -0.27311188 0.14521985 -0.26116922 -0.27996075 -0.3134083 0.2557232 -0.3118943
0.18999955 0.028867703 0.21412775 0.18707547 -0.114625745 -0.20763943 -0.2144207 -0.0027473117
-0.12633388 0.006454029 0.049738955 0.069312364 0.1504189 -0.19368678 -0.012631738 -0.14790522
0.044796176 -0.095843844 0.137129 0.1559831 -0.2506901 -0.04007058 -0.043527678 -0.22180265
0.19409324 0.014641441 -0.22632478 -0.20686872 0.0033917348 0.061955817 -0.20268703 -0.15009172
0.17273948 -0.08209583 0.0039460403 -0.22282313 0.26234096 -0.22065744 0.20070791 -0.017069807
-0.20103319 0.2647264 0.25423887 0.0030074827 0.10089139 -0.026903206 0.14057463 -0.16774596
0.0154056605 0.14315721 0.2020402 -0.017424649 0.30479008 0.18882309 0.18087512 0.27392668
-0.019664759 0.20071894 -0.21066424 -0.14809747 0.16070667 0.043708608 0.11338429 0.046647936
-0.25699785 0.20269775 -0.18244717 0.005297795 -0.08560331 -0.25250635 -0.311842 -0.20555924
0.12540174 0.09801732 -0.060538594 -0.056326773 -0.203279 -0.05330799 0.2551233 0.0077598244
-0.015554596 -0.10086229 -0.22799484 0.03619521 0.19714549 -0.15884075 0.03388276 -0.008867671
-0.19866851 0.10266883 0.26393488 0.17544225 0.27620018 -0.10450559 0.22720239 -0.08977029
0.15603004 0.17064384 0.17619611 0.07207154 0.23951511 -0.018316114 0.24841948 0.25483277
-0.29051906 0.19020626 0.17640917 -0.121211104 -0.13171057 0.12717234 0.045845885 0.02109863
-0.08023985 0.21482112 0.1051905 0.13187034 -0.16047394 -0.020422963 0.20653693 0.106329866
0.22151472 -0.07611772 -0.17758262 0.16857904 -0.24231933 0.09194196 -0.03761848 0.15908578
0.08032688 0.1417852 -0.035036594 0.037988108 -0.22124346 -0.1160963 0.14035553 0.04174008
0.1605874 0.0064608753 0.14204913 0.0057598576 -0.28950337 0.25725108 -0.105704516 0.0864235
0.042791177 0.16104408 0.25449038 0.23620376 -0.19938146 0.029682748 0.12965482 0.23279774
-0.12923871 -0.067517556 -0.15176825 -0.1722314 -0.16205144 -0.1099858 0.086953 -0.07544862
-0.27496698 0.12190904 -0.06375722 -0.1752186 0.24512856 -0.24037509 -0.007864808 -0.287008
-0.28587008 -0.19546273 -0.20743556 0.15349416 0.19078436 0.0973678 -0.05009667 -0.13470127
0.0017233933 0.22879593 0.083495475 -0.30381674 0.23337114 -0.18799184 0.10106675 -0.30618235
0.31225905 0.048372243 -0.13824189 0.1081968 -0.19144791 0.11265731 0.14877531 0.21968351
0.2462964 0.11815739 0.0036772678 0.30488127 -0.081698276 0.27958223 -0.0901307 0.038057636
0.17525418 0.06435372 -0.004120041 0.033875503 0.07533366 -0.18222986 -0.018211542 0.11551772
0.061360635 -0.034165557 -0.1665062 0.14990868 0.04909993 0.07804686 -0.029151876 -0.105102606
-0.0069715283 -0.16464293 -0.2632217 0.2917956 0.19945958 -0.12461685 -0.15027232 0.25534785
-0.22294737 0.08877983 0.1110097 0.027129617 -0.013685863 -0.15551066 0.0030895965 -0.10877154

convs.1.convs.<user___rates___item>.att_src f4 [1, 2, 32]
00000000: 7129 b73e c33d 613d b22a b0be 4d9f 713e
00000010: 6da9 d0be c376 943e 16af cd3d c031 563e
00000020: ba09 9f3d 9e50 a73e d809 793e b957 9e3e
00000030: b65d aa3e e659 4fbd 6996 693e 6495 dcbb
00000040: 1411 a8be 977c 4bbe 0a3a 9abe 98ad 563e
00000050: 7e88 d33e fd0f 733e 822d c33e 3faf 833e
00000060: 1192 8ebe 50dd 33be aec2 6abe a046 a1be
00000070: fafb e8be 043b 963e 79f7 223d f9e6 223d
00000080: 0de2 a1be 81b2 023f 6240 88be b829 1fbe
00000090: bf33 babe a6ca a93e 4ce1 efbe bca3 63be
000000a0: 31ab ca3d 427a fa3e c721 db3d f500 ce3e
000000b0: f45a 373d 8c33 c23e 7c64 9bbe 39f1 f6be
000000c0: 7bcd 123e 10aa 883e d9c3 c7bd e0e6 293e
000000d0: 5768 833b ad18 ce3e 0b31 69be df06 2abe
000000e0: 7653 d6be 5d58 673e 838a b83e f548 57be
000000f0: 284e 3b3e e40b 82be 5f5d f93e e339 b1be
0.35773805 0.05499054 -0.34407574 0.23595925 -0.40754262 0.28996858 0.100431606 0.20917416
0.07765527 0.32678694 0.24320161 0.30926302 0.3327462 -0.050622843 0.22811283 -0.006731676
-0.3282553 -0.19871746 -0.30122405 0.20964658 0.41315073 0.23736568 0.38120657 0.2571964
-0.27845815 -0.17564893 -0.22925827 -0.31499195 -0.45504743 0.293419 0.03978679 0.039771054
-0.31617776 0.51053625 -0.2661162 -0.15543258 -0.36367604 0.3316242 -0.46851575 -0.22230428
0.098959334 0.489214 0.10699802 0.40235105 0.044764474 0.37929952 -0.303501 -0.48230913
0.14336197 0.26692247 -0.09754152 0.16591978 0.004010241 0.402532 -0.22772615 -0.16604184
-0.4186055 0.22592302 0.36043176 -0.21023925 0.18291533 -0.25399697 0.4870405 -0.34614477

convs.1.convs.<user___rates___item>.att_dst f4 [1, 2, 32]
00000000: 8113 733e b281 00be 08a8 9b3d 48dd 93be
00000010: 9bce 85bd ffaf cabe 525c 6c3e 4162 633e
00000020: c15a b7bb a133 8fbe 7051 403e 5a2b bbbd
00000030: 81ea 8f3e 3ff6 b0bd 64f3 ab3e 471e e4be
00000040: 4fe9 07be f154 9ebe bac8 b53e 668f 13be
00000050: b32d a7be 8faa d3bd d637 b7be 74df 28bd
00000060: 6f70 503e c9fa f13d d02f d63e 30ec 823e
00000070: 4b1d b3be 56e2 933e 676b b0be f0a6 013d
00000080: 520a 043f 41a3 f8be 6f41 bcbe 74a4 12be
00000090: 2958 e83e 1e74 6a3e 5a5b 85be 02e7 3e3e
000000a0: 38f1 4c3e ae86 763e 2949 4ebe e025 2a3e
000000b0: debe 253e fa43 ffbe 4c0d 183e 832e be3e
000000c0: 91e1 ed3e 64ab 463e 71b9 a63e 1ad0 35be
000000d0: 3ee2 723e 6981 d53e 50ff ccbd aa35 013f
000000e0: 0604 853e 32e0 c03e c458 863e f918 a93e
000000f0: 5f81 e8be 620b 1a3e 4cc6 1f3e 563b 1a3e
0.23737909 -0.12549475 0.07600409 -0.28879762 -0.065335475 -0.395874 0.23082092 0.2220545
-0.0055955355 -0.27969077 0.18781066 -0.09139128 0.281086 -0.08640718 0.3358413 -0.4455435
-0.13272594 -0.3092418 0.35504705 -0.14410171 -0.32652053 -0.10335266 -0.35784787 -0.041228727
0.2035539 0.118154116 0.41833353 0.25570822 -0.34983286 0.28883618 -0.3445694 0.031653345
0.5157825 -0.48562053 -0.36768672 -0.14320546 0.4537976 0.22895858 -0.26046258 0.1864281
0.20013893 0.24074814 -0.20145096 0.1661601 0.16186091 -0.4985655 0.14848822 0.3714486
0.46461156 0.19401318 0.32563356 -0.17755166 0.23719117 0.41700295 -0.100096345 0.5047251
0.25979632 0.37671047 0.26239598 0.33026865 -0.45411202 0.15043405 0.15602988 0.15061697

convs.1.convs.<user___rates___item>.bias f4 [64]
00000000: a37e 8a3d e53d 173c ef1c 8ab9 a32b bd3d
00000010: 34ab 63bd d35b 8c3d 786d 1abd 7db0 c33d
00000020: ee28 4ebd 8d63 b3bd b5b6 8abd ae4e 8d3d
00000030: 9c2d a73d 334d 7d3d 5d78 d9bc 6ac1 313d
00000040: 46d5 b3bb c435 4ebd c951 a63d 1e8f bbbc
00000050: 362f 98bd 7463 cbbc c2ec cbbb 29f1 af3d
00000060: 9737 01bd 2839 863c 6283 84bd 8f9f 6abd
00000070: 0ef5 3fbd b7f9 8d3d 9db5 b43d bfe5 e7bd
00000080: 5be9 cfbc f883 d3bc b961 e5bd 9b3b 863d
00000090: 6307 543d 4267 733c aea1 943d 9a2c 0fbd
000000a0: b768 933d 3bfa 90bd e5f3 013d 47b5 69bc
000000b0: deff 0c3d 10a4 d6ba 7379 b13d e965 483d
000000c0: da40 7cbc d62c 94bc 3498 183d 4d4f 31bc
000000d0: b0bf 67bd 7b6e 1bbc f979 f63c ba2c e53b
000000e0: c96b 5f3d ac29 7abd 44ff 88bd 9f04 8e3d
000000f0: 42aa 0fbd b249 9c3d 5d06 77bd cbf7 8a3d
0.06762435 0.009231065 -0.00026342968 0.09236839 -0.055583194 0.068534516 -0.037702054 0.09555147
-0.050332002 -0.08759222 -0.0677313 0.068997726 0.08162996 0.0618412 -0.026546651 0.043397345
-0.0054880707 -0.050344244 0.08121068 -0.022895392 -0.0743088 -0.024827696 -0.006223292 0.085909195
-0.031547155 0.016384676 -0.06470372 -0.057281073 -0.04686456 0.06932395 0.088237025 -0.113231175
-0.025379827 -0.025819764 -0.1120028 0.065543376 0.051764857 0.014856162 0.072574005 -0.034954645
0.07197707 -0.07078978 0.031726737 -0.014264411 0.0344237 -0.0016375799 0.08665743 0.048925314
-0.015396321 -0.018087786 0.037254527 -0.010822129 -0.05657929 -0.00948679 0.030087458 0.006993857
0.05454615 -0.061074898 -0.06689313 0.06934475 -0.03507448 0.07631244 -0.060308803 0.06785544

convs.1.convs.<user___rates___item>.lin_src.weight f4 [64, 64]
00000000: c8b3 f63d 57aa 973d 5204 acbd fb26 df3d
00000010: f9a5 b63d 7513 cf3d ab82 02be fab1 09be
00000020: 77a8 2dbe f449 d9bd ec92 b3bd afee 7b3d
00000030: ac47 dd3d 7fd6 b6bd fc42 a2bd 86aa cbbd
00000040: c335 fcbd e708 31be 32bc c63d 0c02 333e
00000050: 4e18 ef3d f05c 40bb 0ff2 48be 6684 1f3e
00000060: a117 c9bd a22e aabb 5bd9 45be b456 6ebe
00000070: 81d4 593d 0920 e93d 2500 0d3d e833 103e
00000080: 266d c83d c19a cc3d a4fe c3bd d0c7 70be
00000090: 6db3 ccbd ec92 7c3e 97ec 7fbd e4bb 7b3c
000000a0: 0ee1 833d c9ac 89bd df31 1d3e ca30 a63d
000000b0: 6f5d 5abd 14e0 0a3e d66e 14be 148d bd3d
000000c0: f5b9 b4bc cdc5 18be 058a 7cbd 8500 4ebd
000000d0: af76 8cbc 63a8 6e3e b3ca 573e 8a3f 1a3e
000000e0: 7ad5 52bc 5eba a13c bfda 19be 2d08 693e
000000f0: 4ab9 f53d f288 85be 861e 3bbe 8e69 c13b
00000100: 0db7 6a3d 923b e7bd 7aa8 bebb 64bc a73d
00000110: ec3a 21be 56ec 243e 87e6 0cbe a550 0c3e
00000120: ae8e 1dbe 07f9 233e 6488 b6bd 475e 1e3e
00000130: 36dc 263d 716a c7bd 207e 44bd a4f5 19bd
00000140: f798 2abc 5f00 213e 3304 86bd 9022 5cbe
00000150: 248c 233d 84bf 8bbd c99f 4abe 9d06 1ebe
00000160: b24b 37bc 533a 703d 3634 4bbe 7c5c 94be
00000170: fc90 7c3d 5f24 d6bc 406d 5abd 99a7 13be
00000180: 6f42 1a3e 6a70 61be d061 01be 1cee b2bd
00000190: a3a0 7ebd a30e 923d 09e0 dbbd 3b0a 53be
000001a0: d2ee 1c3d f17a 45bd a6fd 36be 5497 093e
000001b0: 4bdd 483e dced 623e 78a4 39be ee9c 5bbd
000001c0: ad74 61bc fa29 f93d e7fe 34bd 3500 1d3d
000001d0: bc56 f0bd c284 d83d 10ab d63c 40d0 033d
000001e0: 8887 f23d 9727 073e 8f10 43be 6bf3 15be
000001f0: 4a96 f2bd d99b e83c 9542 1b3e 2332 ec3d
00000200: c4d2 15be a126 d7bd 8e22 83be 2fc7 81bc
00000210: 1c2e 183e f40f 323b d7c1 40be 09f6 43be
00000220: b5e7 113e d2ff 14bc 4b10 a2bd 6e07 00bd
00000230: 5131 163d 507d d3bd 7e03 babd d7cb 9ebc
00000240: bc06 c7bd 2f70 3d3e b559 433c 3f96 823d
00000250: 2404 2cbe 9d10 4dbe bec6 55be c2cc 543d
00000260: 7967 a13d fda0 12be ba15 c4bd 9461 e23d
00000270: 9c0f 9e3c 6646 01be 9073 ad3c 7e4a 643e
00000280: 31cd 083e 3d53 16bd c4aa 283c d84d 433d
00000290: 3dc1 4ebd b8cd 3fbd 1137 00be 74b7 12be
000002a0: 15d7 2fbc d9bc 1c3e 8e65 ebb9 01a5 17be
000002b0: 1e2d 963d 7d9e 803d 72cb 093e de7b d4bd
000002c0: 8735 ad3d 2843 acbd bb9d 193e 84cd d2bd
000002d0: 2bea 80be 512f 0cbe d89c f73d f011 b8bc
000002e0: d3d7 903d bc4f 00be 3be5 cebc b472 8e3d
000002f0: a5e4 92bd 0fd8 053e f501 863d 2749 e73c
00000300: 0a62 95bd 3955 d73c ad40 203e 42c7 81bd
00000310: 631b 66bd 36c1 4abd 85f9 0fbe 1652 25be
00000320: 4404 953d 258d 7d3d ce57 52be a985 eb3d
00000330: efb9 4b3e 9cc3 febd 2cf3 5b3e dfd2 003d
00000340: 43a0 d33d 76c4 8c3c 69d7 593d c1ed 343e
00000350: 20e0 453d 62e8 db3c cb7d 9cbd 1d45 de3d
00000360: b800 19be fe24 27bd a09c 813d 2d48 83be
00000370: f8bb 62be 359c a13d 6750 503e 148d 193e
00000380: 6884 903d fc75 fdbd 38aa 033e f565 9ebd
00000390: 002e 813c b12d 3f3d 0503 f03d 94ef 843b
000003a0: 9836 79be 0dbc bebd 2307 29bb 2f9d eebd
000003b0: 0fd5 cc3c 58a9 723d f4b7 3d3c 69e5 9ebd
000003c0: 23ed 2abd 58f7 2c3e b710 49be eaaf 333d
000003d0: f18e 42be 8dab d9bd 94b4 5a3e 201c 523b
000003e0: 9330 2c3e d0f4 263e 4813 dc3d 4c88 d4bd
000003f0: 9af0 ab3d 7716 61bd d115 343e bf06 403d
0.12046009 0.074055366 -0.083992615 0.10896107 0.089183755 0.10111133 -0.12745158 -0.13446799
-0.16958795 -0.106098086 -0.087682575 0.061506923 0.10804686 -0.08927631 -0.079229325 -0.09944634
-0.12314942 -0.17288552 0.09703864 0.1748125 0.116745576 -0.002935227 -0.19623588 0.1557785
-0.0981896 -0.0051935473 -0.19321196 -0.23275262 0.053181175 0.11383063 0.034423966 0.140823
0.097864434 0.099904545 -0.09570053 -0.23513722 -0.0999516 0.24665421 -0.06248149 0.015364621
0.0643941 -0.06722409 0.15351056 0.081147745 -0.05331176 0.13562042 -0.14495406 0.09255424
-0.022061327 -0.14919205 -0.061655063 -0.050293464 -0.017146436 0.23306422 0.21073417 0.150633
-0.01286828 0.019742187 -0.15024851 0.22757025 0.11998232 -0.26081043 -0.18273363 0.0059024757
0.057303477 -0.11290659 -0.005818424 0.081902295 -0.15745133 0.1610578 -0.13759814 0.13702638
-0.15386459 0.16012965 -0.08912733 0.15465651 0.040737353 -0.09737099 -0.047971845 -0.037587777
-0.010412446 0.15722798 -0.0654377 -0.2149756 0.03992857 -0.06823638 -0.19787516 -0.1543221
-0.011187481 0.058649372 -0.19844136 -0.2897681 0.061661705 -0.02614039 -0.053326845 -0.14419402
0.15064405 -0.22015539 -0.12634969 -0.08736822 -0.062164914 0.07131698 -0.10736091 -0.20609371
0.038313694 -0.04821295 -0.17870197 0.13436633 0.19615667 0.22161049 -0.18129146 -0.053616457
-0.013760728 0.121662095 -0.044188406 0.038330276 -0.11735293 0.105721965 0.026204616 0.032181025
0.11842257 0.13198696 -0.19049285 -0.14643638 -0.118450716 0.028394626 0.15162118 0.11533
-0.14631182 -0.10505415 -0.256123 -0.015842048 0.1486134 0.0027170153 -0.18823944 -0.19136824
0.14248545 -0.009094195 -0.07913264 -0.031257086 0.036668126 -0.10326636 -0.09082697 -0.019384308
-0.09718081 0.18499826 0.011923243 0.063763134 -0.16798455 -0.20025869 -0.20876595 0.051953085
0.07881064 -0.14319225 -0.095744565 0.11053768 0.019294553 -0.12624511 0.021173269 0.22294042
0.13359524 -0.036700476 0.01029462 0.04768166 -0.050477255 -0.046827048 -0.12521006 -0.14327794
-0.010732432 0.15306415 -0.00044898357 -0.14809038 0.07332824 0.06280229 0.13456514 -0.10375188
0.08457475 -0.084112465 0.15001576 -0.10293105 -0.25178656 -0.13689925 0.120904624 -0.02246949
0.07072415 -0.12530416 -0.02525579 0.06955472 -0.07172517 0.13070701 0.06543342 0.028233124
-0.0729409 0.026285755 0.15649672 -0.063368335 -0.05617846 -0.049500667 -0.14060028 -0.16144595
0.07276204 0.061902184 -0.20541307 0.11500103 0.19895147 -0.12439653 0.21479481 0.031451102
0.10333302 0.017183524 0.053183947 0.17668821 0.048309445 0.026844207 -0.076411806 0.10853026
-0.1494168 -0.040806763 0.06328702 -0.25641003 -0.22142017 0.07891122 0.20343171 0.14995223
0.070565045 -0.12376019 0.12857902 -0.077342905 0.015769005 0.046674434 0.11719326 0.0040568803
-0.24337232 -0.093132116 -0.0025791607 -0.11651074 0.025003938 0.05924353 0.011579502 -0.077586
-0.041730057 0.16891229 -0.19635282 0.043868937 -0.1899984 -0.10628424 0.21357948 0.003206022
0.16815405 0.16304326 0.10745865 -0.10377559 0.083955005 -0.054953065 0.17586447 0.046881434
